cart.pth (torch, 71914 bytes, 6 tensors)

fc.0.weight f4 [128, 4]
0	0x3b985cee	0.00464975
1	0x3cb27806	0.021785747
2	0x3e13a27e	0.14417455
3	0xbcb4b1a6	-0.022057366
4	0x3e814ada	0.2525242
5	0x3df5ae8c	0.11996183
6	0xbf0f4a5e	-0.5597285
7	0xbde094e8	-0.109659016
8	0xbf1b1405	-0.6057742
9	0x3df57978	0.11986059
10	0x3fa38feb	1.2778295
11	0x3e7abcd4	0.24486095
12	0xbdaa9e87	-0.08331018
13	0x3e559125	0.2085615
14	0x3f35a002	0.7094728
15	0xbda6c99c	-0.08143923
16	0xbf867793	-1.0505241
17	0x3e309a91	0.17246462
18	0x3ecfd10e	0.40589184
19	0x3e9eed4d	0.3104042
20	0x3baf7508	0.0053545274
21	0xbd624aca	-0.055247106
22	0x400da822	2.213387
23	0x3d09985e	0.033592574
24	0xbe943670	-0.28947783
25	0xbe0535ab	-0.13008754
26	0xbec16015	-0.37768617
27	0xbe260a27	-0.1621481
28	0x3e0cf448	0.13765061
29	0xbe14278b	-0.1446821
30	0xbf70ad96	-0.9401487
31	0xbdfec094	-0.12439075
32	0x3ea941b6	0.33057946
33	0xbed84aef	-0.4224467
34	0xbf67952f	-0.9046201
35	0xbeacd2de	-0.3375463
36	0x3e4c7eb0	0.19970202
37	0x3cddc027	0.027069164
38	0xbf837316	-1.0269496
39	0xbe2467a3	-0.1605516
40	0x3ed1e600	0.4099579
41	0xbee8a205	-0.4543611
42	0x3f4cc381	0.79985815
43	0xbea1c234	-0.31593478
44	0xbbcfbd7a	-0.006339726
45	0x3d5152b9	0.05110428
46	0x3e9d857f	0.30765912
47	0xbd4c4520	-0.04987061
48	0xbe979107	-0.29602835
49	0x3ec77fc2	0.3896466
50	0x3f682394	0.9067929
51	0x3eb9e073	0.36304054
52	0xbe1b3946	-0.15158567
53	0x3de0a3e4	0.1096876
54	0x3f591897	0.84803146
55	0x3e12567d	0.14290805
56	0xbc4ccc63	-0.0124999015
57	0xbd7d2182	-0.061799534
58	0xbfe586d2	-1.7931769
59	0xbe4f1904	-0.20224386
60	0x3de680cf	0.11255037
61	0xbef0b094	-0.47009718
62	0xbf594933	-0.8487732
63	0xbe9cedc7	-0.3065016
64	0xbd268eb0	-0.04066342
65	0x3bcb2b42	0.006200225
66	0x3fd74ecf	1.6820925
67	0x3dbddbf4	0.09270468
68	0x3d8449cf	0.0645939
69	0x3e4dd764	0.20101696
70	0xbf44f828	-0.76941156
71	0x3dce21b8	0.10065025
72	0xbe81c54d	-0.2534584
73	0x3e209327	0.15681134
74	0x3ebec058	0.37256122
75	0x3e2c2308	0.16810238
76	0xbd9386e1	-0.072034605
77	0xbeb0aec8	-0.34508348
78	0x3f6c1195	0.9221433
79	0x3e87914d	0.26478043
80	0x3dd668b5	0.1046919
81	0xbe90edc9	-0.28306416
82	0xbfbbca54	-1.4671121
83	0xbe2374f3	-0.15962581
84	0xbe8233c8	-0.2543013
85	0x3e970059	0.29492453
86	0xbd2500bb	-0.0402839
87	0x3e40f8bb	0.18844883
88	0xbf040336	-0.515674
89	0x3e894638	0.26811385
90	0x3faa1bc2	1.3289721
91	0x3e827ac5	0.2548429
92	0x3f0a5989	0.5404287
93	0xbea19310	-0.31557512
94	0xbfa30700	-1.2736511
95	0xbea4a0db	-0.32153973
96	0x3ea742dc	0.32668197
97	0xbebb61db	-0.36598095
98	0xbece7feb	-0.4033197
99	0xbe7b1fdf	-0.24523877
100	0xbec5e36c	-0.38650072
101	0x3d0e333f	0.03471684
102	0x3fa7a320	1.3096657
103	0x3dbd5272	0.09244241
104	0x3e8822dc	0.26589096
105	0xbe725f95	-0.23669274
106	0xbe118f1e	-0.14214751
107	0xbe3e18ba	-0.1856412
108	0x3d466563	0.048436534
109	0xbc2b70d7	-0.010463915
110	0xbec95faf	-0.39330813
111	0xbe4caa10	-0.19986749
112	0xbec94be0	-0.393157
113	0x3e860775	0.26177564
114	0x3f143110	0.57887363
115	0x3e0181dd	0.12647195
116	0x3e312abc	0.17301458
117	0xbe52428f	-0.20533203
118	0x3f302d8b	0.68819493
119	0x3e24d4c1	0.16096784
120	0x3d18ab2c	0.037272617
121	0xbe633bf7	-0.22190844
122	0xbe439f5d	-0.19103761
123	0xbed37ced	-0.41306248
124	0x3e11b04a	0.14227405
125	0x3cec59e9	0.028851466
126	0x3e7b7038	0.24554527
127	0xbe299af5	-0.16563018
128	0x3e8cf89f	0.27533433
129	0x3d899030	0.06716955
130	0xbf2ef8cd	-0.6834839
131	0xbe5974c4	-0.21235949
132	0xbee8c75d	-0.45464602
133	0xbdce8da0	-0.100856066
134	0xbf534c84	-0.8253863
135	0xbdca9502	-0.09891702
136	0x3e26c986	0.16287813
137	0xbd233473	-0.03984494
138	0xbed8184b	-0.42206034
139	0x3e109850	0.14120603
140	0xbdd505fd	-0.10401533
141	0xbdf9754b	-0.12180575
142	0xbf97e017	-1.1865262
143	0x3e168476	0.14698967
144	0x3ed54588	0.4165461
145	0x3d35b455	0.04436143
146	0xbf962356	-1.1729534
147	0xbd5f31a8	-0.054490715
148	0xbe904edc	-0.28185165
149	0x3db093bf	0.0862193
150	0x3f20f5f2	0.6287528
151	0x3dce52a3	0.100743555
152	0xbe92b1e6	-0.2865135
153	0x3e40d699	0.18831863
154	0xbf075804	-0.52868676
155	0xbd50ede5	-0.051008124
156	0x3eeb9037	0.46008465
157	0xbf1a3b03	-0.60246295
158	0x3e10f041	0.1415415
159	0x3b2d75d9	0.0026467948
160	0x3de385bd	0.11109493
161	0x3e593356	0.2121099
162	0x3dfe2a12	0.12410368
163	0x3dfedc3a	0.12444349
164	0x3eb24792	0.3482023
165	0x3d253c8d	0.04034095
166	0xbf7436dd	-0.95396215
167	0x3d69ddf2	0.05709643
168	0xbf04d882	-0.51892865
169	0x3d3ec448	0.046573907
170	0xbe589b9a	-0.21153107
171	0x3e110b89	0.14164557
172	0xbf3baa8f	-0.73307127
173	0x3e98ca98	0.29842067
174	0x3feba334	1.8409181
175	0x3ed1f0e9	0.41004112
176	0xbe7e5d7f	-0.24840353
177	0x3e496e9e	0.19671103
178	0x3fb1726c	1.3863044
179	0x3e365a50	0.17807889
180	0xbeb0daae	-0.3454184
181	0x3eb80aa4	0.35945618
182	0xbe47111e	-0.19440123
183	0x3e7b3232	0.24530867
184	0x3dda3e8e	0.106564626
185	0xbdc80d06	-0.09768109
186	0x3eba6e31	0.36412194
187	0xbd171b41	-0.036891226
188	0x3e850189	0.25977734
189	0x3de3720d	0.11105738
190	0xbf465e9f	-0.7748813
191	0xbe93332d	-0.28749982
192	0x3e8c54fe	0.27408594
193	0xbb0fb50b	-0.0021927978
194	0x3ee3221e	0.44361967
195	0xbdea5b34	-0.11443177
196	0xbec3362e	-0.38127273
197	0x3e853e0a	0.26023895
198	0xbd9e1c5c	-0.07720253
199	0xbe3d20d1	-0.1846955
200	0xbe7fe037	-0.24987875
201	0x3e41486a	0.1887528
202	0xbc2b6e1e	-0.010463266
203	0xbdabdd61	-0.08391834
204	0xbe4ceb3b	-0.20011608
205	0x3e7058a5	0.23471315
206	0x3fd9e191	1.7021962
207	0x3e9b5ce4	0.30344307
208	0x3d8e5045	0.06948904
209	0xbe19f8ce	-0.15036318
210	0xbe273827	-0.16330014
211	0xbc9153b0	-0.0177401
212	0x3e1557fe	0.14584348
213	0xbe7d70c7	-0.24750052
214	0x3faffe7d	1.3749539
215	0xbe2f7884	-0.17135817
216	0x3eee6aa1	0.46565726
217	0xbefa9a8d	-0.48946038
218	0x3c9c81a8	0.019104794
219	0x3b42b34a	0.0029708915
220	0x3eca41d2	0.39503342
221	0x3e6a82a1	0.22901393
222	0xbe2bcc1f	-0.16777085
223	0x3e36ebdd	0.17863412
224	0xbe6d7f50	-0.23193097
225	0x3d8e6476	0.06952755
226	0xbed7d338	-0.42153335
227	0xbe7bf035	-0.2460335
228	0x3e89d05e	0.26916784
229	0xbe8c169c	-0.27361
230	0x3e73d93e	0.2381334
231	0x3ec8446b	0.391147
232	0x3e408c58	0.18803537
233	0x3d447513	0.047963213
234	0xbe6b291d	-0.22964902
235	0x3d11c282	0.035585888
236	0x3e8151e4	0.2525779
237	0xbe8c368e	-0.27385372
238	0xbdcfd8b6	-0.10148756
239	0xbe47f846	-0.19528303
240	0xbe069876	-0.13144097
241	0x3d8cb42c	0.068703026
242	0xbf468511	-0.77546793
243	0xbe5f7ea2	-0.2182565
244	0x3d4d9ced	0.050198484
245	0xbd88f1c3	-0.066867374
246	0xbf070b92	-0.5275203
247	0xbdcd274b	-0.1001726
248	0xbe76fd07	-0.2411996
249	0x3df3982d	0.118942596
250	0x3e9f58e4	0.31122506
251	0xbd87d8eb	-0.06633171
252	0x3dd4db20	0.10393357
253	0xbd7dcc7b	-0.061962586
254	0xbdb7b286	-0.089695975
255	0xbe4f8255	-0.20264561

fc.0.bias f4 [128]
0	0xbdf893c2	-0.121375576
1	0xbe86b4f7	-0.2630994
2	0xbee325f2	-0.44364887
3	0xbeb8c4d7	-0.36087677
4	0xbeb89e96	-0.3605849
5	0xbef15878	-0.4713781
6	0xbe875eef	-0.26439616
7	0x3d6f091b	0.058358293
8	0x3c385b53	0.011252242
9	0xbf06ba2e	-0.5262784
10	0xbe2794aa	-0.16365305
11	0x3e9c44a5	0.30521122
12	0x3ee45f0c	0.44603765
13	0x3ea2a744	0.3176824
14	0xbeb95288	-0.3619578
15	0x3eba9e13	0.36448726
16	0xbed102c2	-0.40822417
17	0xbe879c49	-0.26486424
18	0xbdf2de02	-0.11858751
19	0xbf0454d0	-0.51691914
20	0xbdb342cd	-0.087529756
21	0xbe5ce529	-0.21571793
22	0xbe921d01	-0.28537753
23	0xbf0d7d6d	-0.5526951
24	0xbee716b8	-0.4513452
25	0xbf3945cd	-0.7237213
26	0xbe1c8cc6	-0.15288076
27	0x3e380c12	0.17973354
28	0xbdc96156	-0.098330185
29	0x3e2727ab	0.16323726
30	0xbf126466	-0.57184446
31	0x3e86330c	0.2621082
32	0xbf57ec69	-0.8434511
33	0xbf3195ba	-0.6936909
34	0x3ed0060d	0.40629616
35	0xbe597375	-0.2123545
36	0xbf46a495	-0.7759488
37	0xbee483e0	-0.44631863
38	0xbf115798	-0.5677428
39	0xbf193938	-0.59852934
40	0x3ea89a0d	0.3293003
41	0xbf33fe7e	-0.703102
42	0xbe05ab9c	-0.13053745
43	0xbf1d66a1	-0.61484724
44	0xbee0fe28	-0.43943906
45	0xbeeade07	-0.45872518
46	0xbdfa8657	-0.122326545
47	0x3edc2a63	0.43001089
48	0x3e6b9a37	0.23008047
49	0xbec7f773	-0.39055976
50	0xbde1a318	-0.11017436
51	0xbefacc8f	-0.4898419
52	0x3e6eeafb	0.23331825
53	0xbc0833c0	-0.008313119
54	0xbe8e76ea	-0.278251
55	0xbedc8d30	-0.43076468
56	0xbf3f13eb	-0.7463977
57	0xbecc43ba	-0.3989542
58	0xbf0bc0f3	-0.5459129
59	0x3e031b10	0.12803292
60	0xbe0666d2	-0.1312516
61	0x3d7c9451	0.061664883
62	0xbf088359	-0.5332542
63	0xbef5a2d4	-0.4797579
64	0x3e85cdbe	0.2613353
65	0xbf61982c	-0.8812282
66	0xbdfbded9	-0.12298364
67	0xbc9ccd66	-0.01914091
68	0xbec0d59d	-0.37662974
69	0xbf3c35b4	-0.73519444
70	0x3d9b3f9e	0.075804934
71	0xbec0f360	-0.3768568
72	0x3eb2d7a4	0.34930146
73	0x3cee47ae	0.029086914
74	0xbf098113	-0.53712577
75	0x3e87179e	0.26385206
76	0xbeea753c	-0.45792568
77	0x3e9d14e7	0.3068001
78	0xbdb3fcdc	-0.087884635
79	0xbe80a666	-0.25126952
80	0xbd91cfcc	-0.07119712
81	0xbe838a00	-0.25691223
82	0xbee098c9	-0.43866566
83	0xbe8204d4	-0.2539431
84	0xbe210041	-0.15722753
85	0x3e9462da	0.28981668
86	0xbeaa5a4a	-0.3327201
87	0xbe9afcd7	-0.30271026
88	0xbe036281	-0.12830545
89	0xbe6d3a0f	-0.23166679
90	0x3ec73d4e	0.3891396
91	0xbefa1a28	-0.4884808
92	0x3ec5b235	0.38612524
93	0xbd8b93df	-0.068153135
94	0x3e296b60	0.16544867
95	0xbef70171	-0.48243287
96	0xbef851cb	-0.48499903
97	0xbe79305e	-0.24334857
98	0xbd220d4f	-0.039563473
99	0xbe990a21	-0.2989054
100	0x3e9e5c4a	0.30929786
101	0xbf8512ac	-1.0396323
102	0xbe29372b	-0.16524951
103	0xbe342edc	-0.17596
104	0xbf2ce0b6	-0.6753038
105	0xbf127f8d	-0.5722588
106	0xbe5133e9	-0.20429958
107	0x3ebdf184	0.37098324
108	0xbe6632c7	-0.22480308
109	0xbe5a710e	-0.2133219
110	0xbee92cd6	-0.4554202
111	0xbe1d24c4	-0.15346056
112	0xbed39218	-0.41322398
113	0xbf019283	-0.50614184
114	0xbe10ab08	-0.14127743
115	0xbe58f1d2	-0.21185997
116	0xbe417ed9	-0.18896045
117	0xbec73ee6	-0.38915175
118	0xbf04d039	-0.5188022
119	0xbe895a7c	-0.26826847
120	0x3e0417d5	0.12899716
121	0x3e77a3f1	0.24183632
122	0xbdecc1bb	-0.11560389
123	0xbe87bc89	-0.26511028
124	0xbee0669c	-0.43828285
125	0xbe155cfa	-0.14586249
126	0xbe8abbf6	-0.27096528
127	0xbe00c132	-0.12573698

fc.2.weight f4 [128, 128]
0	0x3d1ef612	0.03880889
1	0x3d6ba036	0.057525836
2	0xbeb96bff	-0.36215207
3	0xbdbdcd4f	-0.09267675
4	0xbe2f1f41	-0.17101766
5	0xc10afa23	-8.686069
6	0xbd51e4b4	-0.0512435
7	0x3d8ecbc0	0.06972456
8	0x3e178003	0.14794926
9	0xbda4660e	-0.08027278
10	0x3ce106c9	0.027469056
11	0x3e062854	0.13101321
12	0x3e37e972	0.17960146
13	0x3dd42200	0.103580475
14	0xbfa739b7	-1.3064488
15	0x3e0c64c5	0.13710316
16	0xbf3e27ac	-0.74279284
17	0x3d911b26	0.07085256
18	0xbd5104dc	-0.051030025
19	0xbcf39db7	-0.02973829
20	0x3df78bbc	0.12087199
21	0x3d1adbbf	0.037807222
22	0xbe934ca3	-0.28769407
23	0xbdbb56e3	-0.09147432
24	0x3cf1bf8f	0.029510288
25	0xbea9fe1f	-0.33201692
26	0xbcd8ba85	-0.026456127
27	0xbc5fdf25	-0.013664042
28	0xbd4dacb3	-0.050213527
29	0xbc89406c	-0.016754352
30	0x3ebdc09a	0.37061006
31	0x3dd21c18	0.10259265
32	0xbd684fbb	-0.056716662
33	0xbda64ab1	-0.08119715
34	0x3c48aa75	0.012247671
35	0x3e6be270	0.23035598
36	0xbef35000	-0.47521973
37	0x3e03a54a	0.12856022
38	0xbd3526ee	-0.04422658
39	0xbdea7c27	-0.114494614
40	0x3dcb73b9	0.09934182
41	0xbdf628a2	-0.12019469
42	0x3d90c991	0.07069696
43	0xbfa1ef55	-1.2651163
44	0xbf8b72b1	-1.0894376
45	0xbcccaa07	-0.02498342
46	0xbdac23e1	-0.08405281
47	0x3e16030e	0.14649603
48	0x3d02012b	0.031739395
49	0xbe040ec7	-0.12896262
50	0x3baccb67	0.005273271
51	0xbf5d9942	-0.8656198
52	0x3d4976e4	0.04918565
53	0xbdd80224	-0.10547283
54	0xbd24158e	-0.04005962
55	0x3dbae289	0.091252394
56	0x3ee7fbae	0.45309204
57	0xbd57d5ce	-0.052694134
58	0xbf0d74dd	-0.55256444
59	0x3d3602c6	0.04443624
60	0xbdb508ce	-0.0883957
61	0x3db0ff32	0.08642425
62	0xbdc79833	-0.097458266
63	0xbd0bb517	-0.034108248
64	0x3e2f7a67	0.17136537
65	0x3b389368	0.0028164033
66	0xbda3b6db	-0.07993861
67	0xbd8f086d	-0.06984029
68	0xbf18773c	-0.5955694
69	0x3dababcd	0.08382378
70	0xbce9ecaa	-0.028555233
71	0x3c4ba81f	0.01243022
72	0x3db7e8cc	0.08979949
73	0x3e3ce367	0.18446122
74	0xbfdf5195	-1.7446772
75	0x3e07f7c8	0.13278115
76	0xc060c7ee	-3.5122027
77	0x3d90f82e	0.070785865
78	0x3b71eafa	0.0036913739
79	0xbed35b09	-0.41280392
80	0xbd38a1e6	-0.045076273
81	0x3d9c8fb0	0.07644594
82	0xbebb1ef7	-0.36547062
83	0xbcda2b48	-0.026631966
84	0xbdbdd22d	-0.092686035
85	0x3c9a5f1f	0.018844185
86	0x3d8634d3	0.06553044
87	0xbdfe14f0	-0.12406337
88	0x3d5809a3	0.052743565
89	0xbe1bb111	-0.15204264
90	0x3dac83f0	0.084236026
91	0x3bdd05c0	0.00674507
92	0x3d55af7f	0.05216932
93	0xbe0cf833	-0.13766555
94	0x3b3e00ee	0.0028992253
95	0xbe8e64fe	-0.27811426
96	0x3e02570b	0.12728517
97	0x3e44cc78	0.19218624
98	0xbcbf8118	-0.023376986
99	0xbecdad0d	-0.4017109
100	0x3df202f6	0.11816971
101	0xc088f20e	-4.2795477
102	0xbbc47617	-0.0059955227
103	0xbdb9ef44	-0.090788394
104	0xbea0b879	-0.3139074
105	0x3e03fbe9	0.12889065
106	0x3d4e69c1	0.050393824
107	0xbbf1e3bc	-0.0073818844
108	0x3dafe244	0.085880786
109	0x3ce9119a	0.028450776
110	0xbe050503	-0.12990193
111	0x3d847408	0.06467444
112	0xbe38f880	-0.18063545
113	0x3d1d7c77	0.038448777
114	0xbd7c6de2	-0.06162823
115	0xbe5acb31	-0.21366574
116	0xbe063d83	-0.13109402
117	0xbe6a2a40	-0.2286768
118	0xbe528899	-0.2055992
119	0xbdd5c112	-0.10437216
120	0x3cbc42f5	0.022981146
121	0x3db723eb	0.08942398
122	0x3bd2ec46	0.0064368574
123	0x3e0fa631	0.1402824
124	0xbff090c9	-1.8794185
125	0x3db689df	0.089130156
126	0x3d37e48f	0.044895705
127	0xbe61e673	-0.22060566
128	0x3da170c0	0.078828335
129	0xbd72ed99	-0.059308622
130	0x3daea21d	0.085270144
131	0xbd6bcbd7	-0.057567444
132	0xbd793913	-0.060845446
133	0x3d29403c	0.041321024
134	0xbd3d318e	-0.046189837
135	0xbce48d7f	-0.027899502
136	0x3cef8fa2	0.029243294
137	0x3d62d4ec	0.05537884
138	0xbda19057	-0.07888859
139	0xbd8d6397	-0.06903761
140	0xbd081058	-0.03321871
141	0x3d2921cd	0.041292
142	0xbb9e4e2e	-0.004831097
143	0xbdc60be7	-0.09670239
144	0xbd6f0549	-0.05835465
145	0xbdae813a	-0.08520742
146	0xbd90ca36	-0.07069819
147	0xbd662fd3	-0.056197952
148	0x3c494098	0.012283467
149	0xbd2520a2	-0.040314324
150	0xbba4fa29	-0.005034704
151	0x3cda6371	0.026658745
152	0xbc376307	-0.011193044
153	0xbc95cb4e	-0.01828542
154	0x3d679619	0.05653963
155	0x3c610623	0.013734373
156	0x3cc74b0f	0.024327783
157	0xbdb2277c	-0.08698937
158	0xbcd4e578	-0.025988325
159	0x3da0fb99	0.078604884
160	0x3d3209bf	0.043466326
161	0xbd41f2a9	-0.04735056
162	0xbd13e485	-0.036106605
163	0xbd6ad479	-0.057331536
164	0x3d7cf0de	0.061753146
165	0xbc21e22e	-0.009880586
166	0xbdc1cf29	-0.09463341
167	0x3ceaf12d	0.028679455
168	0xbd3511a8	-0.04420629
169	0x3bc91fd2	0.0061378265
170	0xbb96e19d	-0.004604532
171	0xbbe582a7	-0.0070041004
172	0x3b967ad3	0.0045922785
173	0x3c80438b	0.015657207
174	0xbda8ea67	-0.08247834
175	0xbd5934a0	-0.053028703
176	0x3d9de7d4	0.07710233
177	0xbc7dcfa7	-0.015491403
178	0xbcc072ef	-0.023492305
179	0xbd6a266f	-0.05716556
180	0x3d734d2e	0.059399776
181	0xbd9d11ac	-0.07669386
182	0x3dab68a5	0.08369569
183	0xbdacae92	-0.08431734
184	0x3d39095a	0.045174934
185	0xbd712447	-0.058872487
186	0xbda61057	-0.08108585
187	0x3d85d6e3	0.06535127
188	0xb9a594e6	-0.0003158219
189	0x3b7c1c77	0.0038469115
190	0xbd293b9a	-0.041316606
191	0x3d290012	0.041259833
192	0xbb96638e	-0.0045895046
193	0xbd2da2be	-0.04239153
194	0xbcfb4cc0	-0.030676246
195	0xbd63ad4b	-0.055585187
196	0xbd56b2e1	-0.052416686
197	0x3d9daee3	0.076993726
198	0x3caa19ae	0.020764198
199	0xbc2ace6b	-0.01042519
200	0xbd101204	-0.03517343
201	0x3d7c7835	0.061638076
202	0x3c0eca8c	0.008715283
203	0x3d9af900	0.07567024
204	0x3ce24e02	0.027625088
205	0xbd3eaa37	-0.04654905
206	0x3d6afb70	0.057368696
207	0x3cbb7515	0.022882978
208	0x3da1208a	0.078675345
209	0x3cfcc171	0.030853959
210	0x3c46ef4a	0.012142012
211	0x3b5a6448	0.0033323932
212	0x3d87c31b	0.0662901
213	0xbcce09e1	-0.025151195
214	0x3cc853ea	0.024454076
215	0x3d1191d7	0.035539474
216	0xbd8a8edf	-0.06765532
217	0x3d504385	0.05084564
218	0xbd9a8da0	-0.07546544
219	0xbcede08c	-0.029037736
220	0xbd097047	-0.03355434
221	0xbd0a1798	-0.033713907
222	0x3c4c539b	0.012471105
223	0xbdab33a0	-0.08359456
224	0x3bcacedf	0.0061892117
225	0x3d8e30b1	0.06942881
226	0xbd20cb60	-0.039256454
227	0x3cefbe78	0.029265627
228	0xbdb75933	-0.0895256
229	0x3d5d3e61	0.054014567
230	0xbc92f110	-0.017937213
231	0x3d403ebb	0.046934824
232	0xbcdf2ad3	-0.0272421
233	0x3d9a8664	0.07545164
234	0x3d1d7799	0.038444135
235	0xbd524356	-0.051333748
236	0xbca46600	-0.020068169
237	0x3d5fead9	0.054667328
238	0xbcb2556c	-0.021769248
239	0x3d77e741	0.060523275
240	0xbc72bfa3	-0.014816198
241	0xbd95c591	-0.073130734
242	0xbd1a947d	-0.037739266
243	0xbd7376a2	-0.05943931
244	0xbdc1d4a0	-0.09464383
245	0x3d43fd80	0.04784918
246	0x3cedca48	0.02902712
247	0x3d9822bf	0.07428502
248	0x3b797097	0.0038061494
249	0x3d8f07af	0.069838874
250	0xbcb920a1	-0.022598566
251	0xbd64ae66	-0.05583038
252	0x3d74d466	0.05977287
253	0xbd1857ca	-0.037193097
254	0xbd372e32	-0.04472179
255	0xbd6de702	-0.058081634

fc.2.bias f4 [128]
0	0x3db12978	0.08650488
1	0xbd51081b	-0.05103312
2	0xbd885f0f	-0.06658756
3	0x3e0f8193	0.14014272
4	0x3def812b	0.11694559
5	0xba833074	-0.0010008947
6	0x3e77a139	0.24182595
7	0x3e15cca2	0.14628842
8	0xbdcff744	-0.10154584
9	0xb8e1e668	-0.000107717526
10	0xbdb8373f	-0.08994912
11	0x3d3b307d	0.04570054
12	0x3d4151ee	0.047197275
13	0xbe3b12d1	-0.18268897
14	0xbd939129	-0.072054215
15	0x3e641fb7	0.22277723
16	0xbd5817c9	-0.05275706
17	0x3e55c696	0.20876536
18	0xbdcc5c5b	-0.09978553
19	0xbcf61089	-0.030037181
20	0x3db175ce	0.086650476
21	0xbd40c2d8	-0.047060817
22	0x3e40a315	0.18812211
23	0xbab5b64f	-0.0013863536
24	0xbd3cbb73	-0.046077203
25	0x3e6e9402	0.23298648
26	0x3d901d35	0.07036821
27	0x3e1e7a72	0.15476397
28	0xbe19270a	-0.14956298
29	0x3e39ba75	0.18137534
30	0xbcf2d940	-0.029644608
31	0xbc7ff7c5	-0.015623038
32	0x3e709fd6	0.23498473
33	0x3c9409d2	0.018071089
34	0x3e844c3d	0.25839415
35	0xbddf2f44	-0.10897687
36	0xbd301a70	-0.042993963
37	0x3cbc0d47	0.02295555
38	0x3dfd2e58	0.12362355
39	0xbd1daad8	-0.038493007
40	0xbbb1fca6	-0.0054317294
41	0x3d17a3a7	0.037021305
42	0x3cc4e2f0	0.024033993
43	0xbdaea3e0	-0.085273504
44	0x3e3cddc6	0.18443975
45	0xbdcc1f6c	-0.09966931
46	0xbd543ea6	-0.05181756
47	0xbd3ca82c	-0.04605882
48	0xbdba5099	-0.09097404
49	0x3c8d6435	0.017259696
50	0x3d38732f	0.045031723
51	0x3ea9717a	0.33094388
52	0x3cbbfdc0	0.022948146
53	0x3d63c2d5	0.05560573
54	0x3e740373	0.23829441
55	0x3e5f36d0	0.21798253
56	0x3e01b4e9	0.12666668
57	0xbce2d9ff	-0.02769184
58	0xbd9a0a06	-0.07521443
59	0xbbfdd8bf	-0.0077467854
60	0x3e409ae2	0.18809083
61	0x3e2e2f8c	0.17010325
62	0xbd754023	-0.05987562
63	0xbd897c73	-0.0671319
64	0xbcf678d1	-0.030086907
65	0xbc86a9e1	-0.016438426
66	0x3c2da313	0.010597962
67	0x3e7c4c22	0.24638417
68	0xbcba51c6	-0.02274407
69	0xbc901c12	-0.01759151
70	0x3e2322d2	0.15931252
71	0xbd8bd959	-0.06828565
72	0xbe4c8a17	-0.19974552
73	0xbe0336e0	-0.12813902
74	0xbd447ac1	-0.04796863
75	0x3e891f42	0.2678166
76	0xbd62f4d0	-0.055409253
77	0xbcb5f1d5	-0.022210041
78	0x3e53a38b	0.20667855
79	0x3e695fee	0.227905
80	0x3e205636	0.15657887
81	0x3ca7ac84	0.020468004
82	0xbdd38a90	-0.10329163
83	0x3dea3b20	0.114370584
84	0xbddcd0b8	-0.107819974
85	0xbc611ed2	-0.013740258
86	0x3d528487	0.05139592
87	0x3e56d651	0.20980193
88	0xbd640128	-0.055665165
89	0xbde724bb	-0.11286303
90	0x3b7509d1	0.0037389884
91	0x3b255ea9	0.0025233424
92	0xbd6cc1f8	-0.05780217
93	0xbd87a89b	-0.06623956
94	0x3c68ba45	0.014204566
95	0xbda773cd	-0.08176384
96	0xbba365e3	-0.004986511
97	0xbd6a30b6	-0.05717536
98	0xbd55765e	-0.052114837
99	0xbbcd9d29	-0.0062748385
100	0xbc23fd22	-0.010009082
101	0x3e39d4b5	0.18147548
102	0xbc018bed	-0.007906896
103	0x3e4de7eb	0.20108001
104	0x3d268d64	0.040662184
105	0xbd661eec	-0.056181833
106	0x3e8f462b	0.2798322
107	0x3d2d9b3f	0.042384382
108	0x3dd1ce7a	0.102444604
109	0x3daef6fa	0.08543201
110	0xbe0d022a	-0.13770357
111	0xbde52bda	-0.11190005
112	0x3d20a875	0.039223153
113	0xbd775d98	-0.060391992
114	0x3cc01f80	0.02345252
115	0x3de01bea	0.10942824
116	0x3de21e32	0.110409155
117	0xbd3dfb13	-0.04638202
118	0xbdb8b831	-0.09019507
119	0x3e149718	0.14510763
120	0x3c0eda71	0.008719073
121	0x3e8f4323	0.2798091
122	0x3e490dd2	0.19634178
123	0xbd8b9219	-0.06814975
124	0xbc2cc036	-0.0105438735
125	0x3e24c776	0.16091713
126	0xbe229a57	-0.15879188
127	0xbc140846	-0.009035176

fc.4.weight f4 [2, 128]
0	0x3eb4d312	0.35317284
1	0xbd5944f4	-0.053044274
2	0x3d85a77c	0.06526086
3	0x3ea9739b	0.33096012
4	0x3d88a926	0.066728875
5	0xbc895763	-0.016765302
6	0x3f0208e1	0.507948
7	0x3c42ad06	0.011882072
8	0x3c8fbcd8	0.017546102
9	0x3a85fb1a	0.0010221929
10	0xbc16dd78	-0.009208076
11	0x3da0f5d9	0.07859392
12	0x3c406c58	0.011744581
13	0xc00d2c79	-2.2058394
14	0xba3f1a16	-0.0007289959
15	0x3e13c05c	0.14428848
16	0xbd7ebfea	-0.062194742
17	0x3e187733	0.14889221
18	0xbc812da4	-0.015768833
19	0xbb8361c9	-0.0040094596
20	0x3e24dfad	0.1610095
21	0x3a34c2c0	0.0006895475
22	0x3e92ff2b	0.28710303
23	0xbc0e60f4	-0.008690108
24	0x3c77dd8a	0.015128503
25	0x3ebc4780	0.367733
26	0xbd047170	-0.032334745
27	0xbf1fc76f	-0.62413687
28	0xba8d6ee3	-0.0010790493
29	0x3e70163f	0.23445986
30	0x3c4a711e	0.012356071
31	0x3c978a65	0.018498609
32	0x3edc8be2	0.43075472
33	0xbc9c194f	-0.019055037
34	0x3ef5e01a	0.48022538
35	0xbcbd27b4	-0.023090221
36	0x3d7c9a4a	0.06167058
37	0xbc5d4548	-0.0135052875
38	0x3e9528a2	0.29132563
39	0x3c04a130	0.008095071
40	0x3ea58bab	0.3233312
41	0x3b5a96ce	0.0033354047
42	0x3dfa2d45	0.12215666
43	0x3cbd361e	0.023097094
44	0x3ec63ca0	0.38718128
45	0xbd86344f	-0.06552946
46	0x3d90e1b6	0.07074301
47	0x3d9e7ab2	0.07738246
48	0x3d9e6355	0.0773379
49	0x3d90705e	0.07052682
50	0xbda9c958	-0.082903564
51	0x3f045bc4	0.51702523
52	0xbca93993	-0.020657336
53	0xbd89d956	-0.06730907
54	0x3eb000e2	0.34375674
55	0x3efdfb82	0.49605948
56	0x3dd71570	0.10502136
57	0x3d1aae10	0.037763655
58	0x3d0d5c1c	0.03451167
59	0xbd352155	-0.04422124
60	0x3eb942ad	0.36183682
61	0x3ec81870	0.39081144
62	0x3c4d8708	0.012544401
63	0x3a8ec43a	0.001089222
64	0xbbcfcbe9	-0.0063414467
65	0xbd02b042	-0.031906374
66	0xbda80b97	-0.082053356
67	0x3ea51456	0.32242078
68	0x3ec8854e	0.39164203
69	0x3d4c0d1d	0.049817193
70	0x3e8cd313	0.27504787
71	0xbd7e3f7c	-0.062072262
72	0xbf20c27d	-0.62796766
73	0xc082979e	-4.081008
74	0x3dd94751	0.10609306
75	0x3f131ece	0.5746888
76	0xc02fe295	-2.7482045
77	0x3eb3edb4	0.3514229
78	0x3ec33d88	0.38132882
79	0x3eee2c8c	0.46518362
80	0x3e880b0e	0.26570934
81	0x3c4726c1	0.012155236
82	0x3d6b64fb	0.05746935
83	0x3e98bfb4	0.29833758
84	0xc014127c	-2.3136282
85	0xbd0cde1d	-0.03439151
86	0x3ec216bf	0.3790798
87	0x3ecef468	0.40420842
88	0x3d9a77ae	0.07542358
89	0xbc2c56fc	-0.010518786
90	0xbc1062f5	-0.008812656
91	0x3d873e31	0.06603659
92	0xbcd19031	-0.025581451
93	0x3cb7c36a	0.022432048
94	0xbda12a74	-0.078694254
95	0x3c02fcd6	0.007994851
96	0xbccd0459	-0.025026487
97	0xbd7c0e2d	-0.061536957
98	0x3c3ed6cb	0.01164789
99	0xbd2b1a0d	-0.04177289
100	0xbcdc9bab	-0.026929697
101	0x3dd4fc23	0.10399654
102	0xbd870416	-0.06592576
103	0x3eb6c108	0.35694146
104	0x3c073515	0.008252402
105	0x3d925f2a	0.07147057
106	0x3eeeaaed	0.4661478
107	0xbc6cd05f	-0.014453976
108	0x3d646e88	0.055769473
109	0x3ea44b2d	0.32088605
110	0xbbe03c7d	-0.0068431483
111	0xbd1089e4	-0.035287753
112	0x3d222863	0.039589297
113	0x3d95bf3f	0.07311868
114	0x3cf7f610	0.030268699
115	0xbd4d3fc5	-0.050109643
116	0x3f035017	0.5129408
117	0xbd719338	-0.05897829
118	0xbc6dc144	-0.01451141
119	0x3ec948e6	0.3931343
120	0xbc458622	-0.012055906
121	0x3eb07312	0.34462792
122	0x3e94c901	0.29059604
123	0x3da88bf3	0.08229818
124	0xbcca30cb	-0.02468147
125	0x3eb5fd64	0.35544884
126	0xbc033aff	-0.008009671
127	0xbc0b3b0c	-0.008497965
128	0x3e7ca23e	0.24671265
129	0xbb851c36	-0.004062201
130	0x3b62a6b5	0.0034584228
131	0x3e52447f	0.20533942
132	0x3df50ef7	0.11965745
133	0x3d007719	0.03136358
134	0x3ef61752	0.48064667
135	0x3e9ca736	0.30596322
136	0xbc97c048	-0.018524304
137	0xbcc738f0	-0.024319142
138	0xbcec1558	-0.028818771
139	0xbd688f24	-0.056777135
140	0x3e8701a3	0.26368436
141	0xbf2a331a	-0.66484225
142	0x3ccc714f	0.024956373
143	0x3eadbed9	0.33934668
144	0x3bcc7e7a	0.006240663
145	0x3e32cff2	0.17462137
146	0xbd52a602	-0.05142785
147	0x3b035c8e	0.002004418
148	0xbef0c677	-0.47026417
149	0xbd5776f0	-0.052603662
150	0x3e888a35	0.26667944
151	0xbd866fd1	-0.06564296
152	0xbd0a7d2e	-0.033810787
153	0x3e7e387b	0.24826233
154	0x3dcb3eb8	0.09924072
155	0x3e2321e2	0.15930894
156	0x3e5f2a77	0.21793543
157	0x3eb3e291	0.35133794
158	0xbd139a85	-0.036036033
159	0xbcc189db	-0.023625305
160	0x3ebc4d4d	0.36777726
161	0xbd83781a	-0.06419392
162	0x3f16b9b6	0.5887712
163	0xbd7a8cdc	-0.06116949
164	0xbd853944	-0.06505063
165	0x3b997ab9	0.004683819
166	0x3eb63002	0.35583502
167	0xbcd167b4	-0.025562145
168	0xbeba124f	-0.36342093
169	0xbd08cec0	-0.033400297
170	0x3f032311	0.5122538
171	0xbe477b6f	-0.1948068
172	0x3e87682a	0.26446658
173	0xbc55c934	-0.013048459
174	0xbcf3efa0	-0.029777348
175	0xbd42e6a3	-0.047583234
176	0xbc18b1e1	-0.009319753
177	0xbd04d65f	-0.032431003
178	0x3c759b5e	0.014990656
179	0x3ee4b425	0.4466869
180	0x3c067297	0.008206031
181	0xbc61305b	-0.013744439
182	0x3ea3949e	0.31949323
183	0x3edbe65b	0.42949185
184	0x3e567db9	0.20946397
185	0xbc8557bf	-0.016277192
186	0xbd00c48c	-0.03143744
187	0xbbdb23d9	-0.006687623
188	0x3eb9f79a	0.36321718
189	0x3ec64d10	0.3873067
190	0xbd5e8f8a	-0.05433611
191	0xbd3948b9	-0.04523537
192	0xbd2a80cb	-0.041626733
193	0xbd2e3286	-0.04252865
194	0xbac72037	-0.0015192096
195	0x3e87317a	0.26404935
196	0xbf3c207e	-0.7348708
197	0xbd84bc23	-0.06481197
198	0x3f101c8c	0.5629356
199	0x3c83b1c1	0.01607597
200	0xbc8ea942	-0.017414693
201	0x3e64b4fa	0.22334662
202	0xbce659fe	-0.028119083
203	0x3e323786	0.17403993
204	0xbe41a5f6	-0.18910965
205	0xbe075386	-0.13215455
206	0x3ea0609e	0.31323713
207	0x3ec98252	0.3935724
208	0x3e02b952	0.12766007
209	0x3c9c6fba	0.019096244
210	0xbcfcbd84	-0.030852087
211	0x3e9b8f24	0.30382645
212	0xbf8ca1a6	-1.0986831
213	0xbc90ebb8	-0.017690524
214	0x3e179332	0.14802244
215	0x3ee9f1a8	0.45692182
216	0x3cbd6e76	0.023123961
217	0xbc2437f9	-0.010023111
218	0xbd73e8dc	-0.059548244
219	0xbd3ff323	-0.046862733
220	0xbd3e441b	-0.04645167
221	0xbcbc4b3e	-0.022985097
222	0x3ebfcdba	0.37461644
223	0x3d17f356	0.037097298
224	0xbc8e061e	-0.017336901
225	0x3ceb0fc9	0.02869405
226	0xbd949f3e	-0.072569355
227	0xbd3b35ff	-0.04570579
228	0xbab99362	-0.0014158303
229	0x3ee4df21	0.44701484
230	0x3c6d4408	0.014481552
231	0x3ea5305b	0.32263455
232	0xbd5e8063	-0.054321658
233	0xbd3f2e9b	-0.046675306
234	0x3e21e5a1	0.15810253
235	0xbcb4b5b8	-0.022059307
236	0x3eee080a	0.46490508
237	0x3f1a0cef	0.60175985
238	0x3d1367d7	0.0359877
239	0x3d19389a	0.037407495
240	0xbd3fbbb9	-0.046809886
241	0xbd75dbdb	-0.060024124
242	0x3c30409e	0.010757593
243	0x3ed7bf12	0.42137963
244	0x3ee77395	0.4520537
245	0xbb076399	-0.002065873
246	0x3d8266b0	0.06367242
247	0x3efe4df8	0.4966886
248	0xbd7ded44	-0.061993852
249	0x3e6de16a	0.2323052
250	0x3e7f6a6f	0.24942945
251	0xbd2fbe99	-0.042906377
252	0xbccd2e45	-0.025046477
253	0x3eccd150	0.40003443
254	0xbd69c692	-0.057074137
255	0x3bff8ef1	0.0077990224

fc.4.bias f4 [2]
0	0x3ec8f141	0.39246562
1	0x3dffa753	0.124830864
