DQN.pth (torch, 20448 bytes, 6 tensors)

fc.0.weight f4 [64, 2]
-0.20165525 -1.5267065 0.17727874 0.2702005 -0.24630074 -2.9301023 -0.81323844 1.9994997
-0.5491714 -0.42317346 -0.101870276 -1.679241 -0.39121893 -2.7162914 -0.20011057 -3.3675127
-0.12507895 0.4653902 -0.5512042 -2.8949897 0.1149578 0.6589904 -0.26650733 -0.37571174
-0.3620854 -0.17628151 0.23111208 0.47559035 -0.7340114 -2.4324203 0.095019564 -0.67316324
-0.8430485 -2.0849907 -0.11889331 0.5141497 0.14002346 -0.6470434 -0.4114081 -2.2912052
-0.38292882 0.7550001 0.46337408 1.4216208 0.71706533 -1.4681219 -0.80810314 -1.004116
0.41196445 -0.006927593 -0.21794449 -2.6026456 0.5287929 1.0267913 0.1629559 -0.67563254
-0.7533686 -1.2009287 -0.43855828 -3.2201886 -0.28908083 -1.5851989 -0.6700136 -2.801462
-0.81244135 -0.6215951 -0.6714986 -2.0425293 -0.5081734 -2.1809595 -0.106802136 -0.19333847
0.1613445 -2.3081367 0.482658 2.3579566 -0.64137095 -1.7129334 -0.29019022 -2.046792
0.75928366 2.0663025 -0.15817153 -0.62279326 0.5139655 -0.12629098 -0.60195494 -2.763077
0.012269368 0.49252453 -0.24358703 0.23070139 -0.7266835 -2.489647 -0.76887953 0.9565211
-0.5559556 0.744749 0.6855564 2.1770456 -0.0518402 -0.1804637 0.1422758 -0.53467745
0.59468114 -1.4677517 -0.53252405 -3.019069 -0.81184286 2.1993558 -0.89003617 1.2701359
0.13376924 -1.7124548 -0.5566075 -1.8458594 -0.7789725 -0.26193285 -0.6182839 -1.9318082
-0.28691822 1.4221116 0.55260956 0.36090118 0.22870886 0.6206831 -0.5116819 0.89257157
00000000: b77e 4ebe 1e6b c3bf 8f88 353e b857 8a3e
00000010: 4336 7cbe cc86 3bc0 6530 50bf 9bef ff3f
00000020: 7f96 0cbf 31aa d8be 5da1 d0bd 5ef1 d6bf
00000030: d94d c8be b8d7 2dc0 c9e9 4cbe 5485 57c0
00000040: b214 00be a047 ee3e b81b 0dbf 8347 39c0
00000050: ff6e eb3d 98b3 283f a673 88be 4a5d c0be
00000060: 4263 b9be 2483 34be a5a8 6c3e 9480 f33e
00000070: 2ce8 3bbf c6ac 1bc0 9e99 c23d 6d54 2cbf
00000080: 07d2 57bf 7d70 05c0 567e f3bd 519f 033f
00000090: 4f62 0f3e a3a4 25bf 15a4 d2be 1ba3 12c0
000000a0: 3f0f c4be b047 413f 5e3f ed3e acf7 b53f
000000b0: 9891 373f 6beb bbbf d9df 4ebf e086 80bf
000000c0: 01ed d23e dd00 e3bb d72c 5fbe bf91 26c0
000000d0: f95e 073f e66d 833f e9dd 263e 41f6 2cbf
000000e0: c4dc 40bf 08b8 99bf b68a e0be 9217 4ec0
000000f0: 6702 94be cce7 cabf 0386 2bbf 274b 33c0
00000100: 28fc 4fbf db20 1fbf 55e7 2bbf cdb8 02c0
00000110: a717 02bf d794 0bc0 14bb dabd 85fa 45be
00000120: 7e37 253e 83b8 13c0 f31e f73e c3e8 1640
00000130: e330 24bf 6741 dbbf d093 94be a4fe 02c0
00000140: 6a60 423f 4d3e 0440 b8f7 21be 616f 1fbf
00000150: 3e93 033f 6c52 01be b819 1abf 41d6 30c0
00000160: 7605 493c 2d2c fc3e e16e 79be fc3c 6c3e
00000170: ee07 3abf 6056 1fc0 4ad5 44bf 91de 743f
00000180: 1b53 0ebf dfa7 3e3f a080 2f3f b754 0b40
00000190: 6456 54bd 7acb 38be bfb0 113e 9fe0 08bf
000001a0: 063d 183f 4adf bbbf 7f53 08bf 6d38 41c0
000001b0: efd4 4fbf 3fc2 0c40 69d9 63bf d093 a23f
000001c0: cefa 083e b831 dbbf d47d 0ebf 1f45 ecbf
000001d0: be6a 47bf 101c 86be db47 1ebf 7e45 f7bf
000001e0: f2e6 92be c107 b63f d277 0d3f 0ac8 b83e
000001f0: a832 6a3e 16e5 1e3f 96fd 02bf 927f 643f

fc.0.bias f4 [64]
0.76505154 -0.28069666 0.0045056264 0.1887351 0.56183404 0.5144452 0.21752703 -0.0018309474
-0.5231869 0.001885612 -0.5052006 -0.6307828 0.8809174 -0.6765284 0.71004915 -0.5162667
0.43840832 -0.44785646 -0.1625271 0.2247226 0.66022193 0.41108426 0.56344956 0.7803004
-0.5242343 0.42717564 0.8108515 -0.121595 -0.60661906 -0.042165957 0.5901246 -0.16305749
0.7625567 -0.34690374 -0.034854732 -0.29690373 0.43209833 0.07347308 -0.6154877 0.5597396
0.048749615 0.8424118 -0.25575516 0.48389328 -0.22630337 -0.59730047 -0.047245342 0.13375835
-0.46718404 0.5638738 -0.16804454 0.32408926 0.26308692 0.2916359 0.22270712 0.18239649
0.69346243 0.7494314 -0.54377365 0.32381883 0.62335 -0.5118833 -0.6058093 0.6302507
00000000: 6bda 433f 79b7 8fbe efa3 933b c643 413e
00000010: 5bd4 0f3f aeb2 033f 68bf 5e3e 66fc efba
00000020: 94ef 05bf a426 f73a d454 01bf fb7a 21bf
00000030: cd83 613f f730 2dbf c8c5 353f 0e2a 04bf
00000040: 0e77 e03e 714d e5be 816d 26be ae1d 663e
00000050: 4e04 293f a379 d23e 3b3e 103f c4c1 473f
00000060: 3834 06bf c4b6 da3e f793 4f3f cd06 f9bd
00000070: 634b 1bbf 36b6 2cbd 6812 173f 8bf8 26be
00000080: ea36 433f 5e9d b1be d6c3 0ebd c403 98be
00000090: fe3b dd3e 0e79 963d 9a90 1dbf 184b 0f3f
000000a0: adad 473d 4da8 573f 57f2 82be dcc0 f73e
000000b0: 12bc 67be afe8 18bf 5584 41bd f3f7 083e
000000c0: bf32 efbe 095a 103f de13 2cbe 07ef a53e
000000d0: 54b3 863e 4d51 953e 560d 643e 25c6 3a3e
000000e0: c186 313f bcda 3f3f c034 0bbf 95cb a53e
000000f0: de93 1f3f c90a 03bf 5116 1bbf 1c58 213f

fc.2.weight f4 [64, 64]
0.037561283 0.043298617 0.5598188 0.5953512 0.08469109 -0.18232591 -0.056859635 1.0777141
-0.07674053 0.42581055 0.07090762 0.051372126 0.121586315 -0.027881399 0.07396372 -0.0037346482
0.06383564 0.10800786 -0.107374474 0.098147064 0.23910795 -0.099054605 -0.5528118 0.08586286
0.07907121 -0.29362863 -0.10831268 0.050965562 -0.0029889187 0.5092254 0.13332932 0.17764248
0.24601986 0.11160781 0.23788224 -0.01759693 -0.4429008 0.43390647 0.015094025 0.07967133
0.26382095 0.028081812 -0.08532433 0.08095774 -0.11936535 0.030930266 0.30025738 0.19904256
-0.52561617 -0.2220111 0.032355756 -0.32407966 -0.6544159 -0.10682534 0.6112935 0.33273
-0.2460354 0.1187058 -0.18746647 0.26409888 0.30388707 0.10920802 0.10714997 0.15844002
-0.0070344154 -0.034766227 0.17395546 1.1654595 0.09573638 0.11621057 -1.9744151 0.24932498
0.0051281303 -0.47212553 0.048897892 -0.029998615 0.1655787 -0.020255983 -0.25947422 0.02140452
-0.9917628 0.04239367 0.10757381 -1.396688 0.28847912 0.38832563 0.06504809 0.11371427
0.038922086 -0.3016265 0.21000855 -0.10343714 0.035314072 -0.05665161 0.1062888 -0.16495977
0.025780814 0.2199867 -0.15803362 0.06805971 -0.22250296 0.71829194 -0.003033176 -0.07954139
0.71324337 0.23954935 -0.09263022 -0.38526788 -0.012256548 0.03706363 0.06379656 0.4965305
0.05459194 0.4743446 -0.036387354 0.15336242 0.08615581 -1.6710248 1.048346 0.73923314
0.16069607 -0.07686677 0.2310278 -1.1059666 0.32112113 -0.085531026 0.10735975 0.25163338
0.298214 -0.008008122 -0.50561124 -0.16707115 0.26820248 0.23834133 0.23821451 -0.9324906
-0.06500371 -0.3501618 0.058520034 -0.022161901 0.088195354 0.031734392 0.32291895 0.08700897
0.25574622 0.07383457 -0.061484054 0.3750818 0.28100842 0.33873546 0.43304226 0.2424765
-0.12439315 0.28326607 0.28378358 -0.033881173 -0.11272714 -0.2775812 0.12180027 -0.18676782
0.28530264 -0.08147564 -0.18569691 0.07413834 0.18773828 -0.624276 -0.6068358 0.11312085
-0.6362698 0.25705102 -0.013342875 0.2771146 0.090685695 -0.05476968 -0.10373739 -0.060604233
-0.32038665 0.2513226 -0.016478732 0.14787409 0.4514128 0.19820835 -0.17794055 0.059741594
0.18630952 0.30550236 -0.19105521 0.3106108 0.19735937 0.078606516 0.06109409 0.221715
0.22533871 -0.0864867 -0.64147216 -0.3231007 0.18679689 0.33222353 0.73050904 -0.95862234
-0.03976658 -0.3898656 -0.09536469 0.011896521 0.23951893 -0.10958853 0.19091359 -0.089000896
0.41017792 0.042405933 -0.018126413 0.48042047 0.12557799 0.1682608 0.30829346 0.25232577
0.025879383 0.28523013 0.06842311 0.09562941 -0.22495706 -0.40186176 0.2736015 -0.1988446
0.27133322 -0.19515514 -0.33056292 -0.059269026 0.42008483 -0.84249574 -0.52708423 0.24170043
-0.71477556 0.2804009 0.03860725 0.36502826 -0.083430156 0.05359651 -0.13933247 -0.17686845
0.07950873 0.015559743 -0.059569404 0.33054423 0.32411182 0.5415934 -0.37971124 -0.29264125
0.30377525 0.12696774 -0.1339909 0.32014602 0.0040821433 -0.0025328994 0.11772612 0.22256625
00000000: dcd9 193d e459 313d 4950 0f3f f068 183f
00000010: 8672 ad3d a5b3 3abe a6e5 68bd 89f2 893f
00000020: 242a 9dbd d703 da3e 0438 913d 946b 523d
00000030: 3f02 f93d 8867 e4bc 4a7a 973d 00c1 74bb
00000040: 43bc 823d 3a33 dd3d 26e7 dbbd 5401 c93d
00000050: b7d8 743e 24dd cabd 1385 0dbf ded8 af3d
00000060: 16f0 a13d 7e56 96be 0ad3 ddbd 44c1 503d
00000070: bce1 43bb 995c 023f 7b87 083e e9e7 353e
00000080: a1ec 7b3e a392 e43d 6797 733e 7027 90bc
00000090: e5c3 e2be fd28 de3e ee4c 773c b92a a33d
000000a0: 8a13 873e d40b e63c 86be aebd 2ccd a53d
000000b0: d275 f4bd 7861 fd3c 56bb 993e d0d1 4b3e
000000c0: c88e 06bf e156 63be 7887 043d c5ed a5be
000000d0: cd87 27bf 3ec7 dabd bb7d 1c3f 965b aa3e
000000e0: b4f0 7bbe 071c f33d 36f7 3fbe f837 873e
000000f0: 1697 9b3e 74a8 df3d 7271 db3d 1a3e 223e
00000100: f480 e6bb 0867 0ebd 6121 323e c72d 953f
00000110: 6f11 c43d cfff ed3d a2b9 fcbf 0c4f 7f3e
00000120: e009 a83b 70ba f1be 2849 483d a8bf f5bc
00000130: 768d 293e e0ef a5bc ced9 84be 8858 af3c
00000140: 2be4 7dbf fca4 2d3d a84f dc3d acc6 b2bf
00000150: 89b3 933e 9ed2 c63e ef37 853d 07e3 e83d
00000160: c46c 1f3d ca6e 9abe 7b0c 573e dad6 d3bd
00000170: 7da5 103d 850b 68bd f1ad d93d 37eb 28be
00000180: 4932 d33c 3244 613e 91d3 21be e462 8b3d
00000190: d1d7 63be fbe1 373f 40c8 46bb 99e6 a2bd
000001a0: 1e97 363f 6d4c 753e eab4 bdbd d541 c5be
000001b0: b0cf 48bc 08d0 173d c5a7 823d 3f39 fe3e
000001c0: cc9b 5f3d 4cdd f23e e80a 15bd 0a0b 1d3e
000001d0: 7572 b03d 24e4 d5bf 3430 863f 623e 3d3f
000001e0: 838d 243e 536c 9dbd 8d92 6c3e 5090 8dbf
000001f0: fd69 a43e e42a afbd 6edf db3d 17d6 803e
00000200: 81af 983e 8034 03bc bd6f 01bf b314 2bbe
00000210: d651 893e c00f 743e 81ee 733e b4b7 6ebf
00000220: aa20 85bd 6848 b3be b4b2 6f3d e08c b5bc
00000230: c49f b43d ecfb 013d a255 a53e c231 b23d
00000240: 2bf1 823e 9436 973d b4d6 7bbd b90a c03e
00000250: 56e0 8f3e bc6e ad3e b7b7 dd3e c24b 783e
00000260: d6c1 febd 4008 913e 154c 913e fcc6 0abd
00000270: 7ddd e6bd 1f1f 8ebe 6c72 f93d 1040 3fbe
00000280: 3013 923e b3dc a6bd 5527 3ebe d8d5 973d
00000290: 773e 403e 8dd0 1fbf 9759 1bbf e7ab e73d
000002a0: 94e2 22bf 319c 833e 139c 5abc f7e1 8d3e
000002b0: 6cb9 b93d 2c56 60bd 4574 d4bd 253c 78bd
000002c0: b809 a4be 5bad 803e 68fe 86bc 4e6c 173e
000002d0: 941f e73e 21f7 4a3e 0c36 36be 9ab3 743d
000002e0: ecc7 3e3e ce6a 9c3e faa3 43be 6108 9f3e
000002f0: 9318 4a3e 74fc a03d cc3d 7a3d 4209 633e
00000300: 31bf 663e f01f b1bd 8537 24bf 746d a5be
00000310: af47 3f3e 3419 aa3e a402 3b3f 4668 75bf
00000320: 48e2 22bd 779c c7be 904e c3bd a0e9 423c
00000330: 7344 753e f46f e0bd da7e 433e 1a46 b6bd
00000340: d702 d23e d8b1 2d3d d87d 94bc acf9 f53e
00000350: 8497 003e 8f4c 2c3e a4d8 9d3e d830 813e
00000360: 0001 d43c af09 923e 6a21 8c3d 5ad9 c33d
00000370: 255b 66be d3c0 cdbe 7f15 8c3e eb9d 4bbe
00000380: 30ec 8a3e c0d6 47be 8b3f a9be 14c4 72bd
00000390: 5c15 d73e cdad 57bf feee 06bf 5180 773e
000003a0: 88fb 36bf b590 8f3e a322 1e3d fce4 ba3e
000003b0: 6edd aabd 0488 5b3d 2cad 0ebe 011d 35be
000003c0: 79d5 a23d 4bee 7e3c 0cff 73bd 183d a93e
000003d0: fcf1 a53e dda5 0a3f 8369 c2be 13d5 95be
000003e0: 6e88 9b3e d503 023e e934 09be 2eea a33e
000003f0: 80c3 853b 00ff 25bb 641a f13d 68e8 633e

fc.2.bias f4 [64]
-0.039110776 0.3399926 0.29721448 0.14186703 0.05554752 0.042932227 -0.02312012 -0.05143304
0.17928779 -0.11414905 0.0037885255 0.022145852 -0.0041639046 -0.105158985 -0.024986848 -0.11799532
0.016884813 0.13470525 0.21384451 0.15112758 0.027662322 -0.025161788 0.14218622 -0.11502002
-0.036297366 0.21005438 -0.020876572 0.24522561 0.15266077 0.21218492 0.25700012 0.19357347
0.076002344 0.0025029462 0.2424506 -0.12083581 0.17373346 0.039750442 -0.04788506 -0.05254199
-0.11200711 -0.101492375 0.25872278 0.12071947 0.24629669 0.1879675 0.32875356 0.24122094
-0.081601016 0.17500351 -0.024709197 0.09328429 0.009008928 0.0376758 0.17012097 0.08878202
0.04254477 0.087186635 -0.025450442 0.034616098 -0.03995326 0.27288973 -0.094124496 0.255419
00000000: 9f32 20bd 8313 ae3e 7f2c 983e 9745 113e
00000010: cc85 633d b4d9 2f3d 6866 bdbc 74ab 52bd
00000020: 3897 373e fac6 e9bd e948 783b 386b b53c
00000030: 5d71 88bb 985d d7bd 38b1 ccbc 88a7 f1bd
00000040: 0552 8a3c 2cf0 093e 0efa 5a3e 30c1 1a3e
00000050: 189c e23c 1820 cebc 4499 113e 9e8f ebbd
00000060: 8cac 14bd 7f18 573e 5805 abbc 6c1c 7b3e
00000070: 1b53 1c3e 0147 593e 8595 833e 2038 463e
00000080: 1ea7 9b3d 7808 243b f844 783e c478 f7bd
00000090: 2fe7 313e 5cd1 223d 2023 44bd 4536 57bd
000000a0: fc63 e5bd 3cdb cfbd 5077 843e c53b f73d
000000b0: 3335 7c3e 8d7a 403e 6352 a83e 9f02 773e
000000c0: 6f1e a7bd 1f34 333e f16a cabc d50b bf3d
000000d0: 2f9a 133c f151 1a3d 3134 2e3e 59d3 b53d
000000e0: 6d43 2e3d e88e b23d 727d d0bc 9cc9 0d3d
000000f0: 08a6 23bd 34b8 8b3e 58c4 c0bd 47c6 823e

fc.4.weight f4 [3, 64]
0.025045263 -0.27412388 -0.35948887 -0.19991651 0.10945983 0.12400575 -0.036520764 0.11620462
-0.30529195 -0.016965255 0.022510922 -0.080319524 0.004687995 0.31628448 0.118741915 -0.033982515
-0.07677752 -0.26426965 -0.36852387 -0.27241525 -0.15556632 -0.10368396 -0.24322125 0.107391715
0.0054896623 -0.16075434 -0.0867946 -0.368831 -0.3301134 -0.37137625 -0.32697687 -0.041316494
-0.07828752 0.07425958 -0.23788063 -0.0023054779 -0.29958022 0.11429667 -0.041333154 -0.053115394
-0.010518596 0.050063018 -0.32477054 0.016226688 -0.19923975 -0.23860484 -0.5182007 -0.33762318
0.14066598 -0.15970878 -0.080074 0.054988973 0.12691157 -0.12768465 -0.051603265 -0.3012792
0.027996823 -0.30919865 0.23576862 0.07096154 0.122323185 -0.5630064 -0.10270147 -0.3123922
0.12123443 -0.22827516 -0.17313513 -0.34796295 -0.014815554 -0.06854555 -0.104494154 0.08726886
-0.26374134 -0.005517572 -0.06540951 -0.0067557395 0.08810967 0.3490041 0.068320125 0.087430656
-0.24885795 -0.2854584 -0.35492295 -0.25368527 -0.27722964 0.067526445 -0.19708315 -0.021348983
0.02451481 -0.14378291 -0.022209406 -0.37264186 -0.18751138 -0.32445592 -0.14108318 -0.3282329
-0.33381823 0.028978543 -0.3548494 0.047219202 -0.32365844 0.027522232 0.005538583 -0.031227253
0.018543437 -0.06415904 -0.073078744 0.0095701795 -0.07503154 -0.2330416 -0.27916506 -0.3093308
0.17556311 -0.21916424 -0.24169368 -0.04506254 0.16042764 -0.3233251 0.014546285 -0.30906495
0.011571403 -0.25688472 -0.09853049 0.055178057 -0.052543893 -0.4124223 -0.1086469 -0.32053778
0.594714 1.1297902 -0.19158942 -0.35839522 -0.09183952 -0.029974505 0.08611415 0.09426807
-0.24078695 -0.10036042 -1.1968734 0.008138612 0.5164632 0.26622528 -0.12392183 -0.11553012
-0.52178544 -0.46623388 -0.17111146 -0.4128306 -0.49740973 -0.03914976 -0.45099574 0.03530562
0.083683684 1.1847492 0.11884819 -0.50854105 -0.34630194 -0.13338184 -0.33662713 -0.4390859
-0.28206387 -0.005633345 -0.22402744 0.077467754 -0.3720399 -0.004568933 0.07202403 -0.557423
-0.074043706 0.0927545 1.0786691 0.062399544 1.1991625 -0.33863187 -0.1102471 -0.16316333
0.31442967 -0.5089217 -0.57709014 0.10069266 0.5860595 -0.35468316 1.2425401 -0.22542903
0.0029986375 -0.36717826 -0.8233334 -0.09316455 -0.043908045 0.14432791 -0.06598617 -0.39782226
00000000: b92b cd3c f759 8cbe ed0e b8be eab6 4cbe
00000010: 7a2c e03d baf6 fd3d cc96 15bd b0fc ed3d
00000020: 3a4f 9cbe b8fa 8abc d368 b83c 907e a4bd
00000030: c19d 993b 0af0 a13e f62e f33d 4031 0bbd
00000040: 883d 9dbd 5a4e 87be 29af bcbe 037a 8bbe
00000050: c74c 1fbe 4258 d4bd fe0e 79be 30f0 db3d
00000060: a0e2 b33b c99c 24be 5ec1 b1bd 6bd7 bcbe
00000070: a004 a9be 0725 bebe 8369 a7be 7c3b 29bd
00000080: 3555 a0bd 6815 983d fb96 73be 8017 17bb
00000090: 9462 99be 5f14 ea3d f44c 29bd 878f 59bd
000000a0: 3056 2cbc e10e 4d3d 5348 a6be d5ed 843c
000000b0: 8105 4cbe d454 74be cda8 04bf f2dc acbe
000000c0: be0a 103e b38a 23be d6fd a3bd 1e3c 613d
000000d0: 1bf5 013e c4bf 02be f25d 53bd 4441 9abe
000000e0: 9859 e53c 494f 9ebe 546d 713e 4954 913d
000000f0: 9484 fa3d 3021 10bf 2655 d2bd dff1 9fbe
00000100: c249 f83d f7c0 69be 564a 31be 3328 b2be
00000110: f0bc 72bc 9c61 8cbd 0801 d6bd 04ba b23d
00000120: 1b09 87be c0cc b4bb 6cf5 85bd 405f ddbb
00000130: d872 b43d aab0 b23e 6ceb 8b3d d80e b33d
00000140: 9ed4 7ebe 9a27 92be 76b8 b5be 09e3 81be
00000150: 0bf1 8dbe 4e4b 8a3d 2ad0 49be 10e4 aebc
00000160: 48d3 c83c d43b 13be 80f0 b5bc eaca bebe
00000170: fc02 40be 161f a6be 1c78 10be 250e a8be
00000180: 39ea aabe 6964 ed3c d2ae b5be ec68 413d
00000190: 8fb6 a5be 4e76 e13c 007d b53b 4cd0 ffbc
000001a0: 68e8 973c d165 83bd 4faa 95bd 3ecc 1c3c
000001b0: 23aa 99bd 75a2 6ebe b9ee 8ebe 9b60 9ebe
000001c0: d1c6 333e 976c 60be 8c7e 77be 7f93 38bd
000001d0: 2547 243e de8a a5be 8b53 6e3c c33d 9ebe
000001e0: fb95 3d3c 6586 83be 5bca c9bd 6302 623d
000001f0: 4438 57bd 0429 d3be 4482 debd 871d a4be
00000200: 2d3f 183f f79c 903f 0430 44be 947f b7be
00000210: 5c16 bcbd 188d f5bc 9e5c b03d 9e0f c13d
00000220: db90 76be c489 cdbd 2633 99bf d057 053c
00000230: ef36 043f ae4e 883e baca fdbd 0e9b ecbd
00000240: bb93 05bf 35b6 eebe d837 2fbe 885e d3be
00000250: 7dac febe 805b 20bd eae8 e6be a09c 103d
00000260: 5a62 ab3d dda5 973f ae66 f33d bf2f 02bf
00000270: 7d4e b1be 4095 08be 645a acbe decf e0be
00000280: ad6a 90be ec97 b8bb 7367 65be 6aa7 9e3d
00000290: 047c bebe fdb6 95bb 5681 933d 46b3 0ebf
000002a0: 3aa4 97bd 12f6 bd3d d411 8a3f aa96 7f3d
000002b0: 287e 993f 2861 adbe 3bc9 e1bd 4a14 27be
000002c0: edfc a03e b148 02bf 2ebc 13bf f437 ce3d
000002d0: ff07 163f 0899 b5be 8e0b 9f3f ded6 66be
000002e0: ca84 443b cafe bbbe fac5 52bf 0ecd bebd
000002f0: ecd8 33bd b2ca 133e c223 87bd 5caf cbbe

fc.4.bias f4 [3]
-0.41476545 -0.12279403 -0.10816161
00000000: 235c d4be 707b fbbd d683 ddbd
