DQN_check.pth (torch, 20828 bytes, 6 tensors)

fc.0.weight f4 [64, 2]
00000000: 75f6 673c bf41 42be 59d3 1c3f 901e ac3e
00000010: 2cf8 0b3f a723 2cbf e8f7 a13f 9468 eac0
00000020: ae63 1d3c fb4f 3e3f f721 b93d 67b7 93bf
00000030: a3fa 2cbe 5997 80bd 336d 8a3d e1f8 953f
00000040: 9b00 d53c 0fd5 83bf 0855 383f 07b8 5a3f
00000050: 29c8 5dbe 114b 0e41 e940 003f 2225 0541
00000060: bde3 1e3d b045 2b3f dfac 1c3f 2ebd b4be
00000070: 9816 10bf 9b26 983f 5848 f93d 0968 e73f
00000080: eeee 71be c260 1d3f ccdc bdbe bf59 46bf
00000090: 399d a4be 49c1 c1be c1a3 843e 0863 93be
000000a0: 78b0 4fbe 59f4 d2be 76b2 683c af25 e03e
000000b0: bdc4 833e 3d61 3bbd 8323 683c a73c 463f
000000c0: ce3c dbbd 734f 7f3f f3b8 1b3c 8470 d33e
000000d0: b66f a0be a13a 343f bf50 b1be 7b65 75be
000000e0: 5381 dabe 2009 60be 6ec0 ee3e 44cb c53e
000000f0: a1a6 603d 73f7 78be c86b 1e3f 53fd ac40
00000100: c95f 933c c648 bd3f 3c71 4e3f 7c9d 473f
00000110: f33d 093f 50e8 cabe 8e53 963c d549 9a3e
00000120: d1ee 093d 4e1b 9f3f 5608 3abc 992f f23e
00000130: 94dd 793f 7074 ce40 d8c5 26bc a4bf 2f3c
00000140: d67b df3d 185e b940 4b68 6a3b 27d5 f83d
00000150: 43d6 9dbc 6c24 86bd ba2e f8be ad42 22bf
00000160: acf9 fb3e ffef c83e c61c ea3b c440 a23e
00000170: 986a 23be f7b9 203f ae7d da3e fec7 ab3f
00000180: 2768 073f 40a5 9c40 e2d0 9c3d 8fe0 8bc0
00000190: 60dd d4bd 1d43 dc3e cffe 533d 0661 b13e
000001a0: 952a 1e3f 0a53 453e 57ab 023d 684a dd3e
000001b0: 582c c93e 78e2 263f ad0b 1b3f 059f 01bf
000001c0: 5798 113e cb8b 6bbf 42bf 20be ac6c 833f
000001d0: e5d8 a63e ff6d 5a40 79e1 b0be 4786 1abf
000001e0: ee89 3b3d b216 e7bd 24ae 8abe 627a b33c
000001f0: bcfc 37bc 10a3 ecbe df6e 603f 0d80 853f
0.014157881 -0.18970393 0.6125999 0.33617067 0.54675555 -0.672419 1.265378 -7.325266
0.009606285 0.7434079 0.090396814 -1.1540345 -0.16892485 -0.06278867 0.06759109 1.1716577
0.026001265 -1.0299395 0.7200475 0.85437053 -0.21658386 8.893327 0.50099045 8.321566
0.038791407 0.6690321 0.6120128 -0.35300583 -0.56284475 1.1886781 0.121720016 1.8078624
-0.236263 0.61475766 -0.37082517 -0.7748069 -0.321512 -0.37842777 0.25906184 -0.28786492
-0.20282161 -0.41202047 0.014202705 0.4377875 0.25736037 -0.04574703 0.014168623 0.774363
-0.10704957 0.99730605 0.009504545 0.4129678 -0.3133523 0.7040196 -0.34631917 -0.23964493
-0.42676792 -0.21878481 0.46631187 0.38631642 0.05484641 -0.24313144 0.6188321 5.4059234
0.01799001 1.4787834 0.8064153 0.7797468 0.5361015 -0.39630365 0.018350389 0.30134454
0.03367502 1.2430208 -0.0113545265 0.4730194 0.97603726 6.4517136 -0.010179006 0.010726843
0.10912292 5.792736 0.003576773 0.121500306 -0.019267207 -0.06549916 -0.4847315 -0.6338299
0.49213922 0.39245602 0.0071445433 0.31690037 -0.15958631 0.6278376 0.4267401 1.3420408
0.528933 4.895172 0.07657029 -4.371162 -0.103937864 0.43019953 0.051756676 0.34644336
0.61783725 0.19269958 0.031901684 0.4322083 0.39291644 0.65189314 0.6056469 -0.5063327
0.1421827 -0.9201018 -0.15697959 1.0267539 0.32587352 3.4129636 -0.34547022 -0.6036114
0.045785837 -0.11283626 -0.27085984 0.021908943 -0.01122969 -0.46218157 0.87669176 1.0429703

fc.0.bias f4 [64]
00000000: b551 01bd b0fe 00bf 4e28 21bf 7813 bbbe
00000010: f78b 87bd fa50 383e 55d2 55be c7f5 b6bd
00000020: 1c80 f23e cbd5 e1be f0fc e2bd dc84 21be
00000030: 34dd 5fbd d63a 19bf 9f8b 2ebf f4d5 913e
00000040: 2f82 1bbf da55 fbbe 752f 1fbf 0922 62be
00000050: 0336 86be 5869 f9bc 03de 45be f720 30bd
00000060: de7f e93e 4cb1 8c3e aff9 2cbf 38b2 fabe
00000070: 6db4 06bf 5cd4 2cbf 98cb 1bbd 056c 97be
00000080: 097a e9bd ff39 efbe 32ea 9fbe dbb3 76bd
00000090: e692 c2bd 9a85 7dbd ca9c e8be f822 90bc
000000a0: 176a 53bd 8f71 05bc b4fa c3bd c121 25bf
000000b0: b410 8ebe 7607 abbc 9b06 55be b2c5 87be
000000c0: 5ac6 b8be f7de f2bc 05af 06be bbd8 74bd
000000d0: f395 a2be 1c9b 65bd 1e38 8abe 8cb0 03bf
000000e0: 949a a8bd 787a 4fbe 092c f4bd 9620 08bf
000000f0: 1bbc febc 45d7 0bbf 0d98 dfbe f808 03bf
-0.031572063 -0.5038862 -0.62952125 -0.3653829 -0.06618493 0.1799964 -0.20881017 -0.08933597
0.47363365 -0.44108424 -0.110834 -0.15773338 -0.054654315 -0.598554 -0.68181795 0.28483546
-0.6074552 -0.49088937 -0.6218179 -0.22083296 -0.26213083 -0.03044574 -0.19322972 -0.043000188
0.45605367 0.27479017 -0.67568487 -0.48964095 -0.5261906 -0.67511535 -0.03803596 -0.295746
-0.114002295 -0.46723935 -0.31233364 -0.060230117 -0.09500675 -0.06189499 -0.4543212 -0.0175948
-0.051614847 -0.00814475 -0.09569302 -0.6450463 -0.27747118 -0.020877581 -0.20803301 -0.26518017
-0.3608883 -0.029647334 -0.13152702 -0.059777003 -0.31755027 -0.056056127 -0.2699594 -0.51441264
-0.082326084 -0.20261562 -0.119224615 -0.5317472 -0.031095555 -0.5462535 -0.43670693 -0.5118556

fc.2.weight f4 [64, 64]
00000000: 0200 6ebe 924a e7bd 2c6d c73d e733 6d3c
00000010: f916 41be df17 f7bc 8375 58bb bf18 3dbe
00000020: 2df1 133c 94c8 c73d 178b 12be 9bf2 3d3d
00000030: b23f adbd 5469 ac3d 416d a7bd 64ab d2bd
00000040: 9883 f8bc ccbb 24bd 48fb 673d 1acb eebd
00000050: 7e48 07be 444e ecbd 28c8 11bd f3de 78bd
00000060: f04f d93c 9b7d a2bd c024 b63d f8db 21be
00000070: 6a9a 943d fe1a d83d e21a d9bd b92b c8ba
00000080: 4534 35be 40de 05bc 0a0f 63bd fc7e 92bc
00000090: d462 e4bd daa3 083d 967a d63d 3b58 083c
000000a0: 7f27 99bd f146 86bb 9d09 e2bd d00d 363c
000000b0: 14a8 32be 1919 40bd 260c 33bd 97d4 55be
000000c0: 39e2 13bd d343 34be 968a 0b3d f225 37bd
000000d0: 46f2 adbd 9435 f2bd 63a5 0f3d d41a 223d
000000e0: bdaf 39be 38ef a83d 88a9 5e3c 08d3 b1bc
000000f0: 7163 61bd 0ccb 0abd 7446 6abd 44fb e43d
00000100: daf1 8e3d fefa 9dbd 806b 64bb 903d 5fbc
00000110: 123a 21bd 9792 f4bd c3c0 a4bd 6c09 25be
00000120: f0bb 45bd 9988 1a3e 439a 05be 3261 a03d
00000130: 8d91 0ebe 2298 e1bd 9e96 c83d 0be4 e5bd
00000140: 4c61 263d c4f9 11bd c8f5 a9bc c073 aebc
00000150: 90fc 043c 3900 efbd a43a da3d 2bb8 633d
00000160: 374c 2dbe 88b5 34be 9c09 71bd 94fa db3d
00000170: 6070 76bc 703f 2a3d b5d7 c43d b706 dbbd
00000180: 044a 0cbe 9315 9ebc 5c60 343d 4c33 75bd
00000190: 7e28 90bd fbba 663c 5344 53bd 5916 38bd
000001a0: 1e19 0e3c cd30 9bbc 6e00 3fbd 80c5 a7ba
000001b0: 25fa 243e 1b0d e43c a04f 8bbb 8716 c23d
000001c0: 43c1 aa3c 9388 7dbb 8ab7 fd3c d4fa 2b3d
000001d0: 14d0 fdbc b6ec b6bc 145e 45bb 54d9 ffbd
000001e0: 3d27 c63d 1a19 eabd 2432 bdbd e883 413d
000001f0: f0c1 11bc ac29 76bd 1087 28bc e58f 1d3e
00000200: 2ca9 0abd 1227 c03d a063 0a3d 0bbb e1bd
00000210: 4fcb 04be f5c4 d3bd e72c abbd 8991 eabd
00000220: bbe1 91bd 9654 a1bd 986a b53c 0d90 b2bd
00000230: 3e8a 2ebd 1a66 d3bd aa0b 893d 40f0 f83b
00000240: 801a ee3d 3531 d93c 509a 9abc cc75 0f3d
00000250: fc33 4ebd 5a12 113c 8003 6c3c c775 29be
00000260: 554d 12bd ec08 9ebd 2091 553c 4c27 94bd
00000270: 740b 32bd 68e8 b2bd f6d0 81bd c53c 9bbd
00000280: c73d 533d daf7 85bd d458 d1bd dfad bcbc
00000290: 7be7 24bd 38d0 c3bd aca7 0cbd 3cb9 993d
000002a0: a1ef e2bd da70 90bd 7b51 17be be67 fbbd
000002b0: 3695 b93d 827a 133d 08b5 ff3c 2513 23be
000002c0: 1545 50bd b4bc aa3d 8fe5 4bbd 01fc 07be
000002d0: 428a d8bd 53ec 503d ccd1 f7bc 50ff d83c
000002e0: 08b0 8fbd 3000 0ebc 7c8c 3dbe 4019 ef3b
000002f0: d6a5 163d 005f ad3c 6c4a eabd 842e 2b3d
00000300: 7e86 ad3c e8b7 2b3d d09f 583d adbb b63f
00000310: 6854 aebc 08ba eabb 292a ca3d 2cbd c93c
00000320: 7511 e03d ce39 17c0 fe1e eabe 3f92 03bf
00000330: 79ef 31be 68db ecbd f89c 31bd 9bc9 90be
00000340: bc48 c53d 84b9 74bd 0623 f93d b253 a3bd
00000350: 7f90 21bd f73c 873d c060 b4bd 9672 0fbe
00000360: c1c0 00bd 524f b8bc 1024 82bc 50cd c63d
00000370: ee7c babd 468f c53d 42e0 08bd d742 98bf
00000380: c006 dbbd 506b 19c0 4f2b f0be 999f 0cbe
00000390: b724 0b3c faf1 5cbc 4f68 26c1 0a6d b53d
000003a0: d7fc 8dbe 58d3 1e3c 3746 9a3d 4c26 863d
000003b0: 28bd 103e e675 abb9 c834 85be 2bfd 2abe
000003c0: fa6e 89bf acc5 e23c 76b1 42bc 62f0 243d
000003d0: df7f c5bf a03a 2dbd f2c7 17bf 02cd fd3d
000003e0: f538 ccbc 967b 9f3d 12b5 e13e 6835 d6bd
000003f0: 5142 38be 6e5d b6bd 02ea 9c3d a224 c4c0
-0.2324219 -0.1129352 0.0973762 0.0144777065 -0.1885642 -0.03016275 -0.0033029027 -0.18466471
0.009029669 0.09755054 -0.14310871 0.046373945 -0.084594145 0.08418527 -0.081751354 -0.102865964
-0.030336186 -0.04021816 0.056636125 -0.11659832 -0.13211247 -0.115383655 -0.035591274 -0.060759496
0.026527375 -0.079341136 0.08893728 -0.15806568 0.07256015 0.10552023 -0.106008306 -0.001527182
-0.1769572 -0.008170664 -0.055434264 -0.017882816 -0.111516625 0.033359386 0.104726 0.008321817
-0.074782364 -0.0040978123 -0.1103699 0.011111692 -0.17446929 -0.046898935 -0.043712758 -0.20881878
-0.036104415 -0.17603998 0.034067713 -0.04471392 -0.084934756 -0.118266255 0.035069834 0.039576367
-0.18133445 0.08248752 0.013590224 -0.021707073 -0.055026475 -0.033885047 -0.057196096 0.111807376
0.06979723 -0.077138886 -0.0034854114 -0.0136255175 -0.03936202 -0.11942022 -0.08044579 -0.16116875
-0.048274934 0.1509117 -0.13047127 0.078310385 -0.1392271 -0.11015345 0.09794353 -0.11225136
0.040620133 -0.035638586 -0.02074708 -0.021295428 0.008116856 -0.11669964 0.10655716 0.055595558
-0.16923605 -0.17647374 -0.058847055 0.10741153 -0.015041441 0.041564405 0.09611455 -0.1069464
-0.1370011 -0.019297397 0.044037208 -0.059863374 -0.07038973 0.014082666 -0.05157883 -0.044943187
0.008672981 -0.018944168 -0.04663127 -0.0012799948 0.16111048 0.02783828 -0.0042514354 0.09476953
0.020844107 -0.003868614 0.030971307 0.041987255 -0.030983008 -0.02232967 -0.003011589 -0.12492624
0.09675453 -0.11430569 -0.09238079 0.047244936 -0.008896336 -0.060098335 -0.010286108 0.15386923
-0.03385274 0.09382452 0.033786416 -0.11022004 -0.12968181 -0.10340301 -0.08358174 -0.1145354
-0.07123133 -0.078774616 0.022145554 -0.08718882 -0.042612307 -0.10322209 0.06691678 0.0075969994
0.11626148 0.026512722 -0.01887241 0.03502445 -0.050342545 0.008854473 0.014405131 -0.16548835
-0.03571828 -0.077165455 0.013035089 -0.07234058 -0.043467954 -0.08735734 -0.06338684 -0.0757995
0.051572587 -0.065414146 -0.10222021 -0.023032127 -0.04025982 -0.09561199 -0.03433959 0.07506034
-0.11080862 -0.07052775 -0.14777176 -0.122756466 0.09061663 0.036005504 0.031214252 -0.15925272
-0.05084713 0.083367735 -0.04977947 -0.13279726 -0.105732456 0.051006626 -0.030251406 0.02648893
-0.07015997 -0.008667037 -0.18510622 0.007296711 0.036779247 0.021163464 -0.11439976 0.041792408
0.021182295 0.041923434 0.052886784 1.4276024 -0.021280482 -0.00716329 0.09871323 0.024626337
0.1094083 -2.362903 -0.4572677 -0.5139503 -0.17376508 -0.11565286 -0.043362588 -0.28278813
0.096330136 -0.059747234 0.12164883 -0.07974948 -0.039444443 0.06603425 -0.08807516 -0.14008555
-0.031433824 -0.02249876 -0.015886337 0.09707129 -0.0910586 0.09646468 -0.033416994 -1.1895398
-0.10694647 -2.3971748 -0.46908042 -0.13732757 0.00849264 -0.013485426 -10.400466 0.08858688
-0.27731964 0.009693943 0.07532924 0.06550273 0.14134657 -0.00032703503 -0.2601683 -0.16698138
-1.0736992 0.027682148 -0.01188313 0.04026831 -1.5429648 -0.042292237 -0.5928947 0.12392618
-0.024929503 0.07787244 0.44083458 -0.10459405 -0.17994048 -0.08904539 0.07661821 -6.129472

fc.2.bias f4 [64]
00000000: 5080 aa3b 9774 093d 6011 8bbc 6386 c73e
00000010: 7c98 283d 9d6b c03e beb4 c6bd 644f 5abd
00000020: c249 e2bd 2852 3fbd 40dc 173f 3e8a 233d
00000030: 67b7 123f ab7c a33c 63db dfbd 97db 3a3f
00000040: f0c6 403d 285a e2bc eeb8 f4bd c3ed d5bd
00000050: 5df3 95bc a05e b13b 8fa3 283b 0b9d 523d
00000060: f585 e73c ceea b9bd b9ef 183f 83b6 66bd
00000070: d593 34bd 564d 3b3f 860a 333f 8124 21bd
00000080: 7b9c 86bd 9670 87bc bb11 f33e 2e50 34bb
00000090: d971 66bb 5919 c7bc e343 413e 29e5 453d
000000a0: 28df a6bd a871 78bd 6ca9 5ebd 28b2 b1bd
000000b0: 6bcb 13bc cdfb 923e cfab 4c3d ea28 083f
000000c0: de52 1c3f b5ce a13c 0408 32bd 0504 a4bc
000000d0: 2369 063d 920c 90bd 7c78 6fbd 4f9a df3e
000000e0: f1cf 323f 78a7 c03e 881a 1e3c b7fd 65bd
000000f0: df09 e8ba e39c d3ba 335f c5bd c230 ee3e
0.0052032843 0.033558454 -0.016976058 0.38969716 0.041161045 0.37582102 -0.097024426 -0.05329837
-0.110492244 -0.04670921 0.5932045 0.03992676 0.573111 0.019956907 -0.109305166 0.7299132
0.04706472 -0.02763088 -0.11949335 -0.1044574 -0.018304521 0.0054128915 0.0025732254 0.0514193
0.028262118 -0.090779886 0.5974079 -0.0563264 -0.044086296 0.7316488 0.6993793 -0.039341453
-0.06572815 -0.016533177 0.47474465 -0.002751361 -0.0035163073 -0.024304079 0.18873553 0.048314247
-0.081480324 -0.060655266 -0.054360792 -0.08676559 -0.009020667 0.28707734 0.049968537 0.5318743
0.61063945 0.019751886 -0.043464676 -0.020021448 0.03281511 -0.070336476 -0.058464512 0.43672416
0.69848543 0.3762777 0.00964988 -0.056150164 -0.0017703137 -0.0016144778 -0.096372984 0.46521574

fc.4.weight f4 [3, 64]
00000000: 57b9 82bd 6e83 28bc cdf6 6b3c fa55 98bf
00000010: 1f54 debc 63cd 96bf 1058 51bd f06e 863d
00000020: 2a15 893d 204f fa3c 4389 8d3f 54f3 1d3d
00000030: f469 f8bf feba b93a d601 7abb 4d11 96be
00000040: 4190 c7bd 9049 ddbd 60a0 28bc aee8 b6bd
00000050: 6f0f 0d3d 9ccc 593d fc0c d93c 641f e73b
00000060: 0d21 cabc b0a7 53bc f03b 88bf 4b31 b5bd
00000070: 9edc 9e3c cbf7 18bf 70e2 eabe 1eea b73d
00000080: 940f cb3c ab22 8c3d 09d8 35bd 0e93 1bbe
00000090: 7555 75bd f579 113d 5cbd 8ac0 e265 abbd
000000a0: c7e4 8a3d 5827 62bd 80d8 c23a 61eb 21bd
000000b0: 7419 d4bc 02fe 7bbf 6421 fd3c e8fd cebf
000000c0: bbf3 48bf 91ea 1cbc c86d bfbc 98a7 c73d
000000d0: 6af3 b23d 1c18 843d d0fa b13d 2601 71bf
000000e0: 4ae6 5cbf 4df0 80bf 504d 2abd 83d6 f0bc
000000f0: ca5b ef3d 4a5f f63d 3c5e c63d 429d d4bf
00000100: 93d3 913c 5604 ffbd f193 cd3d 3947 73bf
00000110: d619 ca3c aafc 94bf 8ea6 27bd 4c7a 0d3d
00000120: ea97 b0bd ecad 29bd 4e03 43bf 387a 8dbb
00000130: d6f0 ccbe 7d13 ce3d 6fc7 e9bc 15f6 47bf
00000140: 2db8 ac3d 2c59 583d b071 59bc 07ac 61bd
00000150: a741 cd3d 703b f7bd 0605 863c a1d9 6abc
00000160: 076c b7bd 02c8 fe3d 8150 81bf 522d 793c
00000170: dd14 35bd 2878 49bf 6a9d 44bf c5ff adbd
00000180: 6ecd 42bd 2f36 073c 6b00 ffbd 0201 673d
00000190: 365c 76bc e8d2 0f3c 1988 bfbf b9e4 b03d
000001a0: 8b31 9b3d 4863 c93d e437 ba3d 3b67 913d
000001b0: a0e0 0f3e 4f81 19be 1cbd f7bd 11a5 07bf
000001c0: deb0 58bf b477 0c3e c8fe 5f3d bac6 c23d
000001d0: 239d 10bd bfc7 6f3d a041 043c 2936 89bf
000001e0: f777 3bbf 5cd4 43bf 5f87 36bd 8b93 e0bb
000001f0: 3ca5 263d 9c85 0ebd 065e ce3d 0a5f 91be
00000200: 0054 b63d 10a0 3e3b e572 9f3c 1184 a6bf
00000210: ccff e6bd f6c3 a1bf c364 96bd bac1 d13d
00000220: 1eff cc3d badf 803d 5da3 a8bf 39dd 9bbc
00000230: 6d6c 41bf ea6f a3bd 1bac 0f3d 8804 2cbf
00000240: f275 403a 10bf 303c 047a e83d 2c22 283d
00000250: 1656 84bb 1006 793c 0e0f ae3b 32bc 073d
00000260: be41 bfbc 8424 603d f6d5 64bf 841e 8f3d
00000270: c0eb 00bc ca55 2cbf dc70 2ebf 780b a3bd
00000280: 586c a6bd 88b3 79bd e2e2 1abe 4e60 543c
00000290: ed8d 01be 56cf 6ebd 5391 3abf 2cdb 27be
000002a0: f8c9 e8bc ccdb 693d 944e e93d 85b3 ad3d
000002b0: 6076 61bd 8a09 e63c ecd4 7f3d 66b3 23bf
000002c0: ad25 1dbf 1f81 5cbd 1686 fcbd e33b 903d
000002d0: bdbf 2ebd 62d1 093b 80af a33c b823 8fbf
000002e0: a8a6 29bf 1325 37bf 24f2 a73d c5ec 91bc
000002f0: ba4d e93c af53 ba3d 2e93 343c 5e05 febe
-0.06383007 -0.0102852415 0.014402104 -1.1901238 -0.027139721 -1.1781429 -0.051109374 0.065641284
0.0669349 0.030555308 1.1057514 0.038562134 -1.9407334 0.0014170108 -0.0038148067 -0.29310074
-0.09744311 -0.108050466 -0.010292143 -0.08931099 0.034438547 0.053173646 0.02649545 0.0070533026
-0.024673963 -0.012918398 -1.0643291 -0.088472925 0.019392308 -0.597531 -0.45875883 0.08980201
0.024787702 0.0684255 -0.04439548 -0.15192816 -0.05989595 0.035516698 -4.335615 -0.08369042
0.06781917 -0.055213302 0.0014865547 -0.039531115 -0.025891043 -0.9843446 0.030899711 -1.6171236
-0.78496903 -0.009577409 -0.023367777 0.09748763 0.08737834 0.06449911 0.08690417 -0.9414238
-0.86288893 -1.0073334 -0.041577637 -0.029399162 0.11687429 0.12029894 0.096859425 -1.6610491
0.017801082 -0.12451999 0.10037983 -0.9503055 0.024670523 -1.1639607 -0.040930323 0.03454046
-0.08622725 -0.04142563 -0.7617692 -0.004317548 -0.40027493 0.10062311 -0.02853748 -0.78109866
0.08433566 0.052819416 -0.013271734 -0.0550957 0.10022288 -0.12071884 0.016359817 -0.014334113
-0.089561515 0.12440492 -1.0102693 0.015208559 -0.04420935 -0.7869897 -0.76802695 -0.0849605
-0.047559194 0.0082526645 -0.124512516 0.056397445 -0.015036633 0.008778311 -1.4963409 0.086373754
0.07577809 0.098333895 0.090926915 0.07099768 0.14050531 -0.14990734 -0.120966166 -0.52986246
-0.8464488 0.13717538 0.054686338 0.0951056 -0.035306107 0.058540102 0.008072287 -1.0719653
-0.73229927 -0.7649591 -0.044562694 -0.006853526 0.040684924 -0.03479539 0.10076527 -0.28392822
0.089027405 0.0029087104 0.019463966 -1.3009053 -0.11279258 -1.2637928 -0.073434375 0.102420285
0.10009597 0.062926725 -1.3174855 -0.019026386 -0.7555607 -0.0798033 0.035076242 -0.67194414
0.0007341794 0.01078774 0.11351398 0.041048214 -0.0040385826 0.015199199 0.0053118533 0.03313846
-0.023346778 0.054722324 -0.8938898 0.06988242 -0.007868707 -0.67318404 -0.6814096 -0.07961172
-0.08126134 -0.06096223 -0.15125611 0.012962414 -0.12651797 -0.0583032 -0.72878 -0.16392201
-0.028416619 0.05709438 0.11391941 0.08481506 -0.05504453 0.02808072 0.062458917 -0.63945615
-0.61385614 -0.053834077 -0.12330262 0.070426725 -0.042663325 0.0021029343 0.019981146 -1.1182775
-0.6626992 -0.71540946 0.082004815 -0.017813096 0.028479446 0.09097993 0.0110214185 -0.4961347

fc.4.bias f4 [3]
00000000: b6a7 f6be 6948 b8bf 30b2 8fbf
-0.48174828 -1.4397098 -1.1226254
