DQN_classic.pth (torch, 20828 bytes, 6 tensors)

fc.0.weight f4 [64, 2]
0	0xbeb3837e	-0.35061258
1	0xc105354d	-8.325513
2	0xbed64405	-0.4184877
3	0xc0b9c6ab	-5.8055015
4	0x3d29eb05	0.041483898
5	0xbe8e118c	-0.27747762
6	0xbe00d54e	-0.1258137
7	0x3ee1d32a	0.44106418
8	0xbf07111e	-0.52760494
9	0x3ecd1ea8	0.4006245
10	0xbe1dccc8	-0.15410149
11	0x3feb260e	1.8370988
12	0x3f1720ca	0.5903441
13	0x403b55ec	2.9271193
14	0x3f2a06ff	0.66416925
15	0x4091e9e8	4.559803
16	0xbeb6ca8f	-0.35701415
17	0x3ff3cc39	1.9046699
18	0x3e064989	0.13113989
19	0x401d4c60	2.4577866
20	0xbd5ba6b4	-0.053625777
21	0xbea51b46	-0.3224737
22	0x3e56391a	0.2092022
23	0xbf332d37	-0.6999087
24	0xbea7c596	-0.32767934
25	0xbecca08c	-0.39966238
26	0xbf54cb56	-0.83122766
27	0x40c5c4c0	6.1802673
28	0x3f0723a1	0.5278874
29	0xbf03c1bf	-0.5146751
30	0xbf4983cc	-0.7871673
31	0x401fd056	2.4970908
32	0xbed01c65	-0.40646663
33	0xc0d21b3d	-6.565825
34	0xbf2b7280	-0.6697159
35	0x4028e5bd	2.639022
36	0xbf06af6f	-0.5261144
37	0xbcdedce9	-0.027204948
38	0x3e7489d5	0.23880704
39	0x403fdcd1	2.9978526
40	0x3f4f7f13	0.81053275
41	0x406781b5	3.6172917
42	0xbd64d379	-0.05586574
43	0x4126e4bd	10.430844
44	0x3d4023b2	0.04690904
45	0xc157f5ec	-13.4975395
46	0x3ef06a77	0.46956226
47	0xc1154399	-9.329003
48	0xbecfbfec	-0.40576112
49	0x402e023d	2.7188866
50	0xbddedcd4	-0.10881963
51	0xbf9d6378	-1.229598
52	0xbe8aff6a	-0.2714799
53	0x40ffe307	7.9964633
54	0xbe7a1a9b	-0.24424212
55	0x404dc121	3.2149127
56	0x3ed7bd87	0.42136785
57	0x406721e6	3.611444
58	0xbe1096da	-0.14120045
59	0x3efa957b	0.4894217
60	0xbf6f2c20	-0.93426704
61	0x402a0ee8	2.6571598
62	0xbe6cf994	-0.23142081
63	0xbfbef055	-1.4917094
64	0xbf3dd1dc	-0.74148345
65	0xc0efa525	-7.4889092
66	0xbea804eb	-0.32816252
67	0xbe3ffd4a	-0.18748966
68	0xbf2911b0	-0.66042614
69	0x3fef2419	1.8682891
70	0xbf1390cf	-0.57642835
71	0x3f94af6d	1.1616036
72	0xbd4607f3	-0.048347425
73	0xbf31207b	-0.69190186
74	0x3ef4118c	0.47669637
75	0xbed01f1a	-0.4064873
76	0xbd9b15dd	-0.075725295
77	0x3f4671a4	0.7751715
78	0xbcc166e9	-0.023608642
79	0xbe7fd91d	-0.24985166
80	0x3eaa6475	0.33279768
81	0x3eedd228	0.464494
82	0xbca3a56d	-0.019976342
83	0x3e1820ca	0.14856258
84	0xbf242acd	-0.6412781
85	0x4066ad09	3.6043112
86	0xbeb40104	-0.35157025
87	0xc12be1e6	-10.742651
88	0x3f040d95	0.51583225
89	0xbe3f680c	-0.18692034
90	0x3e6c5119	0.23077811
91	0x3f310028	0.69140863
92	0xbcbdd225	-0.023171494
93	0xbeb92c9b	-0.36166844
94	0x3cdbb3ec	0.026819192
95	0xbe8976a8	-0.2684834
96	0x3f1415ba	0.5784565
97	0xbeabae85	-0.33531585
98	0xbf87d421	-1.0611612
99	0xc1497804	-12.591801
100	0x3ed68d52	0.41904694
101	0x40af68a3	5.481523
102	0xbf10e325	-0.56596595
103	0x3eae8335	0.34084478
104	0x3dade23f	0.08490419
105	0xbf2b77d1	-0.669797
106	0xbebff3af	-0.37490603
107	0x402113e5	2.5168393
108	0xbf3ba4b8	-0.73298216
109	0xbed9a0ea	-0.4250558
110	0xbfc59e96	-1.5439022
111	0x3ec84e29	0.3912213
112	0x3f79cade	0.97575176
113	0xbfba9ce9	-1.4579135
114	0xbe90cd75	-0.2828175
115	0x3fd224d1	1.6417485
116	0x3ee22dac	0.4417547
117	0x40b8456a	5.7584734
118	0xbe8e2641	-0.2776356
119	0xbe8c5dff	-0.27415463
120	0x3eb988a3	0.36237058
121	0x3e8a7e44	0.27049458
122	0x3e52731c	0.20551723
123	0x40483a7b	3.1285694
124	0xbf1e231b	-0.61772317
125	0x400f877b	2.242644
126	0x3d44662f	0.047949012
127	0xc0e41c61	-7.128464

fc.0.bias f4 [64]
0	0xbe8bddb7	-0.27317593
1	0x3e8ba875	0.2727696
2	0xbd0673d9	-0.032825325
3	0xbe33af98	-0.17547452
4	0xbf225c00	-0.6342163
5	0x3e9b215d	0.30298892
6	0x3f2eafa4	0.68236756
7	0x3f16d228	0.58914423
8	0x3f0f7d6e	0.56050766
9	0x3f1c955b	0.611654
10	0xbdf2c18a	-0.11853321
11	0xbdfbc77a	-0.122939065
12	0xbf0f62de	-0.56010234
13	0xbf318f42	-0.6935922
14	0xbef0ec4b	-0.47055277
15	0x3ec0c672	0.37651402
16	0xbee4104a	-0.44543678
17	0x3ea295c1	0.31754878
18	0xbf2b0706	-0.6680759
19	0x3f24c33e	0.64360416
20	0x3f0f0b37	0.5587649
21	0xbe07f7d6	-0.13278136
22	0x3e4d888b	0.20071618
23	0x3e63cfb8	0.22247207
24	0x3f1e91df	0.6194133
25	0xbe5d421b	-0.21607248
26	0xbe4e7de9	-0.20165218
27	0x3ea3b403	0.31973276
28	0x3f08a962	0.5338346
29	0xbe31bc20	-0.1735692
30	0xbf45c2ab	-0.77250165
31	0xbec6148f	-0.3868756
32	0xbf274b66	-0.65349424
33	0xbf23a2a8	-0.6392007
34	0x3ec2f4fc	0.38077533
35	0xbf35c600	-0.7100525
36	0xbe06e00d	-0.13171406
37	0xbf21b18e	-0.6316155
38	0xbe078de3	-0.13237719
39	0xbed80de7	-0.42198107
40	0xbe920623	-0.28520307
41	0xbec39dcc	-0.38206327
42	0x3e96db3d	0.2946414
43	0xbefd14c1	-0.49429896
44	0xbedfb36e	-0.4369158
45	0xbe1b8484	-0.1518727
46	0xbea50547	-0.3223059
47	0xbc57a561	-0.013161988
48	0xbf2e669f	-0.6812534
49	0xbf1c5ff0	-0.6108389
50	0x3e4ba6b3	0.1988781
51	0x3e92df2d	0.28685895
52	0xbd2c1ae3	-0.04201783
53	0x3f05bcba	0.522411
54	0x3ec2c954	0.38044226
55	0xbf29e951	-0.6637164
56	0x3f1ac078	0.60449934
57	0x3f151e65	0.58249503
58	0xbcc89046	-0.024482857
59	0xbebc01c7	-0.36720106
60	0xbe8f0a68	-0.27937627
61	0x3f3f2085	0.74658996
62	0x3e97a065	0.2961456
63	0xbd90a4f4	-0.07062712

fc.2.weight f4 [64, 64]
0	0xc0103d1d	-2.25373
1	0x3f01ae29	0.5065637
2	0x3dcfefc9	0.10153157
3	0x3c095df3	0.008384216
4	0x3ddd6990	0.1081115
5	0x3e34d11f	0.17657898
6	0x3bc15b86	0.005900803
7	0xbe9929c9	-0.29914692
8	0x3dbf44b0	0.09339273
9	0x3e30276e	0.17202541
10	0xbccdd426	-0.025125574
11	0x3dc98564	0.09839895
12	0x3d0b0dac	0.033948585
13	0xc0be1701	-5.940308
14	0xbdd5517e	-0.10415934
15	0x3eceb344	0.40371144
16	0xc0bba584	-5.8639545
17	0x3ea9c92b	0.3316129
18	0xbd4077dc	-0.046989307
19	0xbcbdb241	-0.023156287
20	0xbe09f5eb	-0.13472717
21	0xc0ae1fa5	-5.441363
22	0x402afc06	2.6716323
23	0x3fa28dab	1.2699484
24	0x3e10006c	0.14062661
25	0x3d8e1a01	0.069385536
26	0x4019cce6	2.403131
27	0x3e63a895	0.22232278
28	0xbcfbedc0	-0.030753016
29	0x3d932b2d	0.071859695
30	0xc0f894ef	-7.7681804
31	0xbd2b69a7	-0.041848805
32	0xc0c4cacf	-6.149757
33	0x3ca00970	0.01953575
34	0x3e47743c	0.19477934
35	0xbe4d217b	-0.20032303
36	0xbdd5d667	-0.104412846
37	0xbd59af98	-0.053145975
38	0xbdad54bc	-0.084634274
39	0xbd920e90	-0.07131684
40	0x3db99fac	0.09063658
41	0x3db80b18	0.08986491
42	0x3e7086d5	0.23488934
43	0xbf52b985	-0.8231433
44	0x3d9b4b56	0.075827286
45	0xbca4e491	-0.02012852
46	0x3c783450	0.015149191
47	0xbd67e25c	-0.056612357
48	0x3c5e7d60	0.013579696
49	0x3fb33e8f	1.4003466
50	0xbf1e7a84	-0.61905694
51	0x3edc9ce5	0.4308845
52	0x3dc239bd	0.09483669
53	0x3eab0f5c	0.33410156
54	0x3efc1508	0.49234796
55	0xbfe3f1bb	-1.7808145
56	0x3d96608e	0.07342635
57	0x3e44d473	0.19221668
58	0xbf8a60c8	-1.0810785
59	0xbc2e785a	-0.010648811
60	0xbc317e30	-0.010833308
61	0x3cf295c2	0.029612426
62	0x3eb61a57	0.3556697
63	0xbfaad201	-1.3345338
64	0xc0815015	-4.0410256
65	0x3c5151f6	0.012775889
66	0x3da330f0	0.079683185
67	0xbdc0b961	-0.09410358
68	0x3d94fab8	0.07274383
69	0x3e2ad6c3	0.16683488
70	0x3c8bb118	0.017052218
71	0xbe29714b	-0.16547124
72	0x3e923367	0.28554842
73	0x3dc242c9	0.094853945
74	0x3d6e9c78	0.05825469
75	0x3d2963cc	0.04135494
76	0xbc26f160	-0.010189384
77	0xc0fc90ed	-7.892691
78	0x3d3569c8	0.044290334
79	0x3e67fe06	0.22655496
80	0xc0f48213	-7.640878
81	0x3e333511	0.17500712
82	0xbb448f40	-0.002999261
83	0x3dd63290	0.10458863
84	0xbdadf590	-0.08494103
85	0xc0dbac7b	-6.8648047
86	0x401b78d1	2.429249
87	0x3f04e51c	0.51912093
88	0x3eab7349	0.33486393
89	0x3da6adba	0.081386045
90	0x40602ad6	3.5026145
91	0x3ea0ed74	0.31431162
92	0xbd7f8994	-0.062387064
93	0xbd87dab0	-0.06633508
94	0xc0effdde	-7.4997396
95	0xbe4c0ab2	-0.19925955
96	0xc0eacfc2	-7.337861
97	0xbdb3d3b6	-0.08780615
98	0x3ebbbf73	0.36669502
99	0xbdb7d4e5	-0.08976153
100	0x3da77da0	0.08178258
101	0x3c9a6100	0.018845081
102	0x3d4f94e9	0.05067912
103	0xbd9da79c	-0.076979846
104	0x3d966150	0.0734278
105	0x3d5c04c8	0.053715497
106	0x3e775de0	0.24156904
107	0x402dbace	2.7145267
108	0x3dc37c64	0.0954521
109	0x3dc9294e	0.09822331
110	0x3ccca1a8	0.024979427
111	0x3da2a911	0.07942403
112	0x3df52f08	0.11971861
113	0x3f1f852d	0.62312585
114	0xbe169495	-0.14705117
115	0x3e12514d	0.14288826
116	0x3e0bd4b6	0.13655362
117	0x3e50c5a5	0.20387895
118	0x3e8933ee	0.26797432
119	0xc001f288	-2.030428
120	0xbee1ac5f	-0.4407682
121	0x3e7cf101	0.2470131
122	0xbf5b6f00	-0.8571625
123	0x3cae4960	0.021275222
124	0x3dc97e1e	0.09838508
125	0x3e43dde7	0.19127618
126	0x3eaca2c2	0.33717924
127	0xc06061c5	-3.5059674
128	0xbcee8508	-0.029116169
129	0xbe148d62	-0.14507058
130	0x3d283830	0.04106921
131	0xbd5f478c	-0.05451159
132	0xbd940248	-0.072269976
133	0x3cea5c5c	0.028608494
134	0xbd07957a	-0.033101536
135	0xbe08cbe2	-0.13359025
136	0x3a1f6709	0.0006080722
137	0xbb923a8c	-0.0044625457
138	0x3dd7ec5a	0.10543127
139	0x3d80470a	0.062635496
140	0xbdb70174	-0.08935824
141	0x3d5986a0	0.053106904
142	0x3ddea890	0.108719945
143	0xbddbf9dc	-0.10741016
144	0xbde3365a	-0.11094351
145	0xbd7666b6	-0.060156547
146	0x3d8482be	0.064702496
147	0xbdd58ced	-0.1042727
148	0xbb12b582	-0.002238602
149	0xbd68f023	-0.056869637
150	0xbe0785c1	-0.13234617
151	0x3dc7007d	0.0971689
152	0x3cd71025	0.026252815
153	0x3da2290c	0.07917985
154	0x3c13c908	0.009020098
155	0x3d149641	0.036276106
156	0x3d120031	0.035644714
157	0xbd7ca04c	-0.06167631
158	0x3d501238	0.050798625
159	0xbd537820	-0.051628232
160	0xbd958bbc	-0.07302043
161	0x3d0ae670	0.03391117
162	0xbe1f4558	-0.15553796
163	0x3d815b34	0.06316224
164	0x3d8f790e	0.07005511
165	0xbd419e18	-0.04726991
166	0xbd388dd4	-0.045057133
167	0x3c4e4330	0.012589261
168	0x3df2e7fc	0.11860654
169	0x3dd6740e	0.104713544
170	0xbd4c58e3	-0.049889456
171	0x3de51c1c	0.11187002
172	0xbdfbbd16	-0.12291925
173	0x3de5526c	0.11197361
174	0xbda6aefc	-0.08138844
175	0x3daaf0de	0.08346723
176	0x3d2ba328	0.041903645
177	0xbc368140	-0.011139214
178	0xbcfdf9a4	-0.031002827
179	0x3be3237b	0.00693172
180	0x3dfd7220	0.12375283
181	0x3d9ca1ac	0.07648024
182	0xbdb2d7ba	-0.08732553
183	0xbdc5384e	-0.0962988
184	0x3cca77a9	0.024715262
185	0xbda9e762	-0.08296086
186	0x3cadec19	0.021230744
187	0x3ca01778	0.01954244
188	0xbdab5776	-0.08366291
189	0xbdd674bb	-0.10471483
190	0xbdf703f3	-0.120613
191	0x3da1e2d6	0.07904594
192	0xbdc95640	-0.09830904
193	0x3d4323db	0.047641616
194	0xbdd27844	-0.10276845
195	0x3d777358	0.060412735
196	0xbdbcd324	-0.092199594
197	0xbd9747f8	-0.07386774
198	0x3d05462a	0.032537617
199	0xbdc81c49	-0.0977102
200	0x3d3b77de	0.04576861
201	0x3d65b06d	0.056076456
202	0xbd65f691	-0.056143347
203	0x3d1e796c	0.038690016
204	0x3da8892a	0.08229287
205	0xbdf1bb32	-0.11803283
206	0xbda9bf90	-0.08288491
207	0xbdf2f295	-0.11862675
208	0xbda02276	-0.07819073
209	0x3c825712	0.015910659
210	0x3dcbe0dc	0.09954998
211	0x3d9d68f5	0.076860346
212	0xbd878a72	-0.06618203
213	0xbd3683c8	-0.04455927
214	0x3cf56c98	0.029959008
215	0x3d1c8750	0.03821498
216	0xbd43f560	-0.04784143
217	0x3cf4bc83	0.029875046
218	0x3db5ff2d	0.088865615
219	0xbd750b09	-0.059824977
220	0x3d144ad5	0.036204178
221	0x3c0c8420	0.008576423
222	0xbd045590	-0.03230816
223	0x3c293249	0.01032693
224	0xba75be00	-0.00093743205
225	0xbd94d1be	-0.07266568
226	0xbc2caafc	-0.010538813
227	0xbd52d3a0	-0.051471353
228	0x3d46b930	0.048516452
229	0x3df5c48a	0.120003775
230	0xbc44a8ae	-0.012003107
231	0xbdb349fa	-0.08754344
232	0xbdbd058e	-0.09229575
233	0x3d0eaa44	0.034830347
234	0xbdaf58c8	-0.085618556
235	0xbc838d60	-0.016058624
236	0x3be55560	0.006998703
237	0x3dbab16c	0.09115872
238	0xbd595ae8	-0.05306521
239	0xbdcf955f	-0.10135912
240	0xbd94c00c	-0.072631925
241	0x3d190a7c	0.037363514
242	0x3cc873b9	0.024469243
243	0xbe05918b	-0.13043801
244	0x3ce6220a	0.028092403
245	0xbdae16fc	-0.08500478
246	0xbda4c38e	-0.080451116
247	0x3da26d05	0.0793095
248	0x3d6db8ea	0.058037676
249	0xbdefa758	-0.1170184
250	0xbd81608c	-0.06317243
251	0x3d64cbc0	0.055858374
252	0x3daf4880	0.0855875
253	0xbcd1f2fc	-0.02562856
254	0xbce05398	-0.02738361
255	0xbd4b44e4	-0.049626246

fc.2.bias f4 [64]
0	0x3e42feea	0.19042554
1	0x3e5984fd	0.21242137
2	0xbda373dd	-0.079810835
3	0x3c1d26a0	0.009591728
4	0x3f114a28	0.5675378
5	0xbca43bd8	-0.020048067
6	0x3d5eefd2	0.05442793
7	0xbd2101ec	-0.039308473
8	0x3d9cfab2	0.07665004
9	0x3cf4b22c	0.029870115
10	0xbb90f509	-0.0044237417
11	0x3bdb25bd	0.0066878484
12	0xbd5c3ea8	-0.05377069
13	0xbdd7e9e6	-0.105426595
14	0xbc572fa5	-0.013133918
15	0xbd1b173e	-0.037863962
16	0xbda58536	-0.080820486
17	0xbdd19928	-0.1023429
18	0x3dbd2994	0.09236446
19	0xbe176a57	-0.14786659
20	0xbe2d6913	-0.16934614
21	0xbdb98132	-0.09057845
22	0x3d0b14b1	0.03395528
23	0xbe09dc87	-0.13463031
24	0xbd99ef93	-0.07516398
25	0xbdec00d3	-0.11523595
26	0x3ed1def2	0.40990406
27	0x3c8f2fa4	0.017478772
28	0xbc097720	-0.008390218
29	0xbdc3f605	-0.09568409
30	0x3dc94f3d	0.09829567
31	0x3cebfd80	0.028807402
32	0xbdf73af8	-0.12071794
33	0xbda1a1a8	-0.078921616
34	0xbcbec29b	-0.023286154
35	0x3d52fcb3	0.051510524
36	0xbde56904	-0.11201671
37	0x3dbd1f33	0.092344664
38	0x3d9926b8	0.07478088
39	0x3f22bda5	0.63570625
40	0x3e7cf30d	0.24702092
41	0xbd8723f7	-0.065986566
42	0xbd2f07d0	-0.04273206
43	0x3e39ceb4	0.18145257
44	0xbc1c0f0d	-0.009525073
45	0xbdf652e2	-0.120275274
46	0xbd1f654c	-0.038914964
47	0x3c7df75d	0.0155008705
48	0xbc473e90	-0.012160912
49	0xbdb8c6ed	-0.09022317
50	0xbe0d7453	-0.13813905
51	0xbc79030d	-0.015198481
52	0x3c62f030	0.0138512105
53	0x3ea7645f	0.32693765
54	0x3e8b0dfa	0.271591
55	0xbc640440	-0.013917029
56	0x3d9914ea	0.07474692
57	0x3ee3d811	0.44500783
58	0xbde6318c	-0.11239919
59	0x3d8e7111	0.069551595
60	0x3d7dcd16	0.061963163
61	0xbda9ca9c	-0.08290598
62	0xbdf8b7b0	-0.121444106
63	0xbd37399f	-0.044732686

fc.4.weight f4 [3, 64]
0	0xbf510b05	-0.8165744
1	0xbf6e4fbc	-0.93090415
2	0x3c77d6a0	0.015126854
3	0x3dc83b2e	0.09776913
4	0xbf433091	-0.7624598
5	0xbcfb8cb8	-0.030706748
6	0xbcb2db0f	-0.02183297
7	0x3db41af6	0.08794205
8	0xbb300510	-0.0026858486
9	0x3c0c9890	0.008581296
10	0x3dc89dbf	0.09795713
11	0x3dc4e5a0	0.0961411
12	0xbdd29c82	-0.10283758
13	0x3df80132	0.12109603
14	0x3d8ee205	0.069767036
15	0xbd205d3e	-0.039151423
16	0xbc9e4ed8	-0.019324705
17	0x3d2d7d70	0.042355955
18	0xbdbc96fa	-0.09208484
19	0x3dc6ece4	0.09713152
20	0xbd7ffce5	-0.06249704
21	0xbbe84a93	-0.007088968
22	0x3d1a5050	0.03767425
23	0x3ddc3de0	0.10753989
24	0xc01bf226	-2.4366546
25	0xbd1ce69b	-0.03830586
26	0xbf352730	-0.7076292
27	0xbd089792	-0.033347674
28	0xbdd6cbea	-0.10488112
29	0xbb48397d	-0.0030551844
30	0xc08138b3	-4.0381713
31	0xbd8017d1	-0.062545426
32	0x3da24d96	0.079249546
33	0x3d1dff0c	0.03857331
34	0xbd14f3e1	-0.036365394
35	0xbda6af1b	-0.081388675
36	0xbde44ffe	-0.1114807
37	0xc010d0ae	-2.2627368
38	0x3d39112a	0.045182385
39	0xbfc63706	-1.5485542
40	0xbfab2bb4	-1.3372712
41	0xbdafbbe6	-0.08580761
42	0x3c292fd0	0.010326341
43	0xc008fbe1	-2.1403735
44	0x3ac8104e	0.0015263648
45	0xbd933dec	-0.07189545
46	0x3d8c7236	0.068577215
47	0x3b8df1e0	0.0043318123
48	0xbd07944c	-0.03310041
49	0x3d3ac36c	0.045596525
50	0x3b9af6d2	0.0047291303
51	0x3c143d00	0.009047747
52	0xbb8bb032	-0.0042629475
53	0xbfd11698	-1.633502
54	0xbef3b1d1	-0.475966
55	0x3d386e68	0.045027167
56	0xbdfa0946	-0.122088
57	0xbfc46018	-1.5341825
58	0xbdb00f3a	-0.08596654
59	0x3dab0a10	0.08351529
60	0xbdc4196a	-0.0957516
61	0x3dd41578	0.10355657
62	0x3e0adcc7	0.13560782
63	0xbf2b00a2	-0.6679784
64	0xbfda313d	-1.7046276
65	0xbf229fda	-0.63525164
66	0xbdf58ba8	-0.11989528
67	0x3cecf09c	0.028923325
68	0xbf20663d	-0.62656003
69	0xbd012484	-0.031528965
70	0x3d4f0af1	0.050547544
71	0x3d0db00a	0.034591712
72	0xbc4db90f	-0.012556328
73	0xbdb4f50e	-0.08835803
74	0xbd7faf2b	-0.062422913
75	0x3d3a0241	0.045412306
76	0x3d9ac1e0	0.0755651
77	0x3dd7769e	0.10520671
78	0x3c834164	0.016022392
79	0xbd968692	-0.07349886
80	0x3d0f26ec	0.03494923
81	0x3dabc3fe	0.08386992
82	0xbbb900c0	-0.0056458414
83	0x3d7a65d4	0.061132267
84	0x3e0497f5	0.12948592
85	0x3da39d2a	0.07988961
86	0x3d975133	0.073885344
87	0x3db81505	0.08988384
88	0xbf65d4ce	-0.8977784
89	0xbd72c7cc	-0.059272572
90	0xbf7d9834	-0.9906037
91	0xbd167113	-0.03672893
92	0xbc7a2500	-0.015267611
93	0xbd31ba2f	-0.04339045
94	0xc0482a1e	-3.1275706
95	0x3d8ef59f	0.06980442
96	0xbde5fc32	-0.11229743
97	0xbdd1bb5c	-0.10240814
98	0x3dac6f03	0.08419611
99	0x3d84ccb5	0.06484357
100	0x3dd8e9d2	0.10591473
101	0xc04a29ff	-3.1588132
102	0x3d95d653	0.0731627
103	0xbfbcbde7	-1.4745454
104	0xc03b0a1b	-2.9224918
105	0xbc957a30	-0.01824674
106	0xbd8d90dc	-0.06912395
107	0x3b48e92a	0.0030656555
108	0x3d5ffc38	0.054683894
109	0xbde56c86	-0.1120234
110	0x3d98edc2	0.07467224
111	0x3de4cb9c	0.11171648
112	0xbdaafd76	-0.08349125
113	0xba937200	-0.0011249185
114	0xbd7b4860	-0.06134832
115	0xbd468aeb	-0.048472326
116	0x3cfa6974	0.030567862
117	0xc012b0f4	-2.2920504
118	0xbddaf123	-0.106905244
119	0xbd0bb144	-0.0341046
120	0xbce7b86a	-0.028286178
121	0xbf961892	-1.1726248
122	0x3d61178c	0.054954097
123	0x3d9403b9	0.072272725
124	0xbdbd099e	-0.0923035
125	0x3d663738	0.056205004
126	0xbd4351ae	-0.047685318
127	0xbf33f724	-0.7029898
128	0xbfca301d	-1.5795933
129	0xc00c29f1	-2.19006
130	0x38860613	6.390749e-05
131	0xbd067180	-0.032823086
132	0xbfd3accd	-1.653711
133	0xbdf870f4	-0.12130919
134	0x3c558b00	0.013033628
135	0xbda6241b	-0.08112355
136	0xbb0ad465	-0.0021183726
137	0xbd10ec74	-0.03538175
138	0x3c75f3c0	0.015011728
139	0xbd87d0c3	-0.06631615
140	0xbd6c6ad4	-0.057719067
141	0x3dda33ba	0.10654397
142	0x3d26306c	0.040573522
143	0xbdb8f643	-0.09031346
144	0xbd8ef766	-0.06980781
145	0x3de0d28c	0.10977659
146	0xbcbf60b8	-0.023361549
147	0x3ddb23ba	0.10700174
148	0xbc64ac43	-0.013957086
149	0xbd960259	-0.073246665
150	0x3c681795	0.014165779
151	0xbd104ff5	-0.035232503
152	0xc11583a2	-9.344637
153	0xb9c70bf0	-0.00037965132
154	0xbffa2e42	-1.9545367
155	0x3d7e7f45	0.062133092
156	0xbdef46d2	-0.1168343
157	0x3d5d118b	0.05397181
158	0xc02b78e3	-2.6792533
159	0xbce4e05d	-0.027939016
160	0xbd494e64	-0.049147025
161	0xbd948cc8	-0.072534144
162	0xbd1837be	-0.037162535
163	0x3dc7b599	0.09751434
164	0xbda74dd4	-0.081691414
165	0xbf45edf8	-0.77316236
166	0xbd81e39f	-0.063422434
167	0x3e30f4d4	0.17280895
168	0xbf68564d	-0.90756685
169	0xbd2c638c	-0.042087123
170	0x3dfc8402	0.12329866
171	0xc07b6ac4	-3.9283915
172	0x3dcbf1e4	0.09958246
173	0x3d5b9b5c	0.05361496
174	0xbdcaeb3e	-0.0990815
175	0x3defae62	0.11703183
176	0x3db4f31c	0.08835432
177	0x3c5d1b27	0.013495243
178	0x3d28af08	0.041182548
179	0x3bf365bd	0.0074278996
180	0x3d7770cc	0.060410306
181	0xbdf6be13	-0.120479725
182	0xc0232c1d	-2.5495675
183	0x3cf135d0	0.029444605
184	0x3d9e284d	0.077225305
185	0xbe15f620	-0.1464467
186	0x3c7b9448	0.015355177
187	0x3d7dd8b7	0.061974254
188	0x3a6d15bc	0.0009044071
189	0xbd974ddb	-0.073878966
190	0x3cb2b1c5	0.021813283
191	0xc1057fe6	-8.343725

fc.4.bias f4 [3]
0	0xbfc983b4	-1.5743318
1	0xbfdc5b0a	-1.7215283
2	0x3fa42535	1.2823855
