quantum/HybridDQN.pth (torch, 2208 bytes, 4 tensors)

post.0.weight f4 [8, 1]
000000 93 7f cb 3e 10 bc ec bd 60 5e 2e bd 97 f8 82 bd
       0.3974577 -0.115593076 -0.04257047 -0.06395071
000010 bf f3 f0 3e 68 45 78 be 84 28 63 be c0 40 2f be
       0.47060964 -0.24245226 -0.22183424 -0.17114544

post.0.bias f4 [8]
000000 f2 eb 9f 3f 4a f4 7c bf ae c7 6f bf 2d 98 35 40
       1.249388 -0.98810256 -0.9366406 2.837413
000010 3c 76 f1 be f0 c3 c8 be b7 fd b9 3f 90 84 44 be
       -0.47160518 -0.39211988 1.4530553 -0.19191194

post.2.weight f4 [3, 8]
000000 b5 7d d6 bf 36 ae 7f be 2f dc 12 3e 7a 3a da bf
       -1.6757113 -0.249688 0.14341806 -1.7049096
000010 05 b8 96 be ce e8 69 bd 89 6d 59 bf 87 e2 9d 3e
       -0.2943727 -0.057106785 -0.8493276 0.3083689
000020 62 b4 c0 bf 66 77 92 3b 61 8a d5 bd 57 03 d2 bf
       -1.5055048 0.0044698 -0.10426784 -1.6407269
000030 96 94 4f bf 82 01 c9 bd e8 0b 7f bf 2b ce 7c be
       -0.810861 -0.09814741 -0.9962754 -0.24688022
000040 4f 75 61 bf 96 08 82 be 46 4b 24 3e fb fa d3 bf
       -0.88069624 -0.25397176 0.1604434 -1.6560968
000050 96 75 97 3e ab e5 94 be 21 a8 b5 bf 91 22 a5 3e
       0.29581898 -0.29081473 -1.4191934 0.32252935

post.2.bias f4 [3]
000000 80 5d bb bf 9b 05 c9 bf 92 3f bc bf
       -1.4637909 -1.5704836 -1.47069
