quantum/HybridDQN.pth (torch, 2208 bytes, 4 tensors)

post.0.weight f4 [8, 1]
0	0x3e97711f	0.29578492
1	0xbedfcc2c	-0.43710458
2	0xbe882874	-0.26593363
3	0xbf066b30	-0.52507305
4	0x3e986b47	0.29769346
5	0xbf0acb70	-0.5421667
6	0xbda77c9a	-0.08178063
7	0x3e25e4c9	0.16200556

post.0.bias f4 [8]
0	0xbe9df3cf	-0.30850074
1	0xbf718b12	-0.9435283
2	0xbf33ec3a	-0.7028233
3	0xbf3db2ea	-0.74101126
4	0x3fe3b2d7	1.7788953
5	0x3feb0884	1.8361974
6	0x3fe485aa	1.7853291
7	0x3f9052a4	1.127522

post.2.weight f4 [3, 8]
0	0xbf01ffb5	-0.507808
1	0xbe42b07a	-0.19012633
2	0x3eb3cbcd	0.35116425
3	0xbdbff3be	-0.09372662
4	0xbfcb42cd	-1.5879761
5	0xbf69c148	-0.9131055
6	0xbfb0a12c	-1.3799186
7	0xbf9c9bc7	-1.223504
8	0xbf94ad5e	-1.1615407
9	0xbd0f0ffa	-0.034927346
10	0x3dfee5bc	0.12446162
11	0xbdf6139d	-0.1201546
12	0xbfef21b8	-1.8682165
13	0xbf810c14	-1.0081811
14	0xbfa74774	-1.3068681
15	0xbf5f4e13	-0.87228507
16	0xbf68f0a2	-0.90992177
17	0xbea60799	-0.32427672
18	0x3e57281b	0.21011393
19	0xbe1f2e55	-0.15545018
20	0xbfbe2383	-1.4854587
21	0xbf9d41ca	-1.2285702
22	0xbf86dc20	-1.0535927
23	0xbf4aed02	-0.79267895

post.2.bias f4 [3]
0	0xbfa6cbfa	-1.3030999
1	0xbf93d40a	-1.1549084
2	0xbfdeb49d	-1.7398869
