classics/dqn_weights.pth (torch, 20848 bytes, 6 tensors)

fc.0.weight f4 [64, 2]
00000000: fc5e 973e a6ba 11bf 780b 133f 0141 9140
00000010: 70bb de3c 2436 983f 964e 833e 7263 b33d
00000020: 2d9a 16bf 788a 803f 6164 a73d b9c1 ce3e
00000030: fd62 663d ef45 2840 d667 873f cc84 ac40
00000040: 9d9d 84be 7f5e a63e c454 78be a208 2abe
00000050: fd08 603d 65e4 e33e 9f94 dd3e 93dd 7d40
00000060: 4214 443e 01b8 0e40 c576 c6be b9c3 0abf
00000070: b965 af3c af71 78be 5fe0 2b3f 865a 8940
00000080: 0f38 80be 3acb 823e 02bb 24be 388d 013f
00000090: 82d1 763d f02d 91c0 29d5 8f3e 95aa dcbc
000000a0: 4385 ce3e 6bd5 6440 2f4e 963c 2289 bb3f
000000b0: d786 353d 1520 7cbf 29ae dabb 98d8 303f
000000c0: a4b9 3a3a d097 8abd aa64 c83c ee41 f93e
000000d0: 2815 82b9 d56b 8ebd 0d53 033d 1853 9d3f
000000e0: 8511 633f 94e3 efbc b95c 0f3d c67e 9a3e
000000f0: 2630 b9bc ffc0 aabe a09f 1c3e 84ad 4d3e
00000100: 3159 8c3f 93df f03f 1621 383c f063 a83d
00000110: 7376 a0be 47c1 3fbf f668 dd3d c1b9 8a3f
00000120: 5c51 313d fec9 67bf 9e4e 83bd 7a76 aebe
00000130: 1adc a0bd d939 b43f 7019 c9bd 52b0 06bf
00000140: 2bb8 a03e 220d 263f 7f0a debd 9c16 ad3e
00000150: c7d9 f83e bdbb a43e af16 1c3d 6069 12bf
00000160: 5535 f23d 7d67 d03f 5819 c03e 2e93 2dbf
00000170: b8cf f0bd 67e6 bd3f 0aa9 a9be a696 f4bf
00000180: 80a5 a23d 3f3c 6d3f a59a 213f 1e16 18be
00000190: 097b 8c3d 9748 cc3f e65e 283f 20ef ebbe
000001a0: c469 893d 89e0 2cbf 3990 433b a844 473e
000001b0: 0311 ee3e b975 4c3e 0c2d 613e 7243 88be
000001c0: d1aa ad3f ba68 ce3e 1b65 86be 3b50 d7bc
000001d0: cb0f e5bd d41c 0141 da73 4fbe 791d 3ebe
000001e0: 19e2 633c 00f1 a83e d79b 09be c7fc 2e3f
000001f0: 14ed 763e d7e4 ca3e a8ab 383e 9a37 cd3e
0.29564655 -0.5692543 0.57439375 4.539185 0.027188987 1.1891522 0.25645894 0.08759202
-0.58829004 1.0042257 0.08173443 0.40382174 0.056246746 2.6292684 1.0578563 5.3912106
-0.259015 0.3249397 -0.24251086 -0.16604856 0.054696072 0.4451019 0.4327745 3.9666488
0.19148353 2.2299807 -0.3876249 -0.542049 0.02141081 -0.24262117 0.6713924 4.2923
-0.2504277 0.25545675 -0.16086963 0.5060611 0.060258396 -4.5368576 0.28092316 -0.026936809
0.40336046 3.575526 0.018347828 1.4651225 0.044318046 -0.98486453 -0.0066735935 0.69080496
0.00071229995 -0.06767237 0.024462063 0.48683113 -0.00024811295 -0.06954161 0.032061625 1.2290983
0.8869861 -0.029283322 0.035000537 0.30174845 -0.022605967 -0.3335037 0.15295267 0.20085722
1.0964719 1.881823 0.011238357 0.082221866 -0.3134037 -0.7490429 0.10811035 1.0837938
0.04329048 -0.9054259 -0.064114794 -0.34074765 -0.07854481 1.4080154 -0.09819305 -0.52612793
0.3139051 0.6486379 -0.10841846 0.33806312 0.4860365 0.32174483 0.03810757 -0.5719204
0.118265785 1.6281582 0.37519336 -0.67802703 -0.11758369 1.4835938 -0.3313678 -1.9108474
0.07941723 0.92670053 0.63126594 -0.14852187 0.068594046 1.5959653 0.65769804 -0.46080875
0.06709626 -0.67530113 0.0029840602 0.19459784 0.46497354 0.19966783 0.2198984 -0.26613957
1.3567754 0.40314275 -0.26249012 -0.026283374 -0.11184653 8.069538 -0.20259038 -0.1856593
0.013908886 0.32996368 -0.13438354 0.6835446 0.24113876 0.39627716 0.18034232 0.40081483

fc.0.bias f4 [64]
00000000: 252a 1ebe 969e 94be f214 90bd e24a 37be
00000010: 5d6e 35bf 786a 81bd 8bd4 23be a645 02bf
00000020: 571d 133f 23e2 babe 902a bdbd 6716 61be
00000030: 5339 3bbe 456e f8be 2f63 4bbc 5a3c a9be
00000040: 53e3 303f 5ed2 0bbf 28bf 0fbd 3802 9cbe
00000050: 55aa 6bbe dcab b4bd 8a70 093e fa8d 6ebd
00000060: d3f1 82bb ec53 20bd 8de9 cfbb 0105 92bd
00000070: 1739 e3be c0a8 e63e 1521 bfbe e261 ed3e
00000080: dfd6 fdbe 2004 26bc 2e10 d3be eed1 efbd
00000090: faca 38bd 492e dabe ecc9 f63e d768 76be
000000a0: 5b8c 13bf a36d fc3e 5468 29bf f62a 40bd
000000b0: 8006 08be 493d cabe 787f 2fbe 1179 abbd
000000c0: fc2f aabd d573 dfbe 3494 c2bd 2adb 09bf
000000d0: a7d8 aabe 1565 10bd c03f b9be 3c7d 91be
000000e0: b4e8 24bf d39e c5be 98c2 24bd 522b 0ebf
000000f0: 6d0b c5bc d39d 0dbf 92e1 21be a169 193f
-0.15445764 -0.2902724 -0.07035245 -0.1789966 -0.70871526 -0.063191354 -0.15999047 -0.50887525
0.57466644 -0.36500654 -0.09236634 -0.21981202 -0.18283586 -0.4852163 -0.012413784 -0.33053857
0.6909687 -0.5461787 -0.03509441 -0.30470443 -0.23014195 -0.08821842 0.13421836 -0.05824087
-0.003996113 -0.039142534 -0.00634498 -0.07129861 -0.44379494 0.4505062 -0.37329927 0.4636374
-0.49577996 -0.010132819 -0.41223282 -0.11709963 -0.04511545 -0.42613438 0.4820093 -0.2406343
-0.5763604 0.49302396 -0.6617482 -0.04691597 -0.1328373 -0.39499882 -0.17138469 -0.08372701
-0.083099335 -0.4364306 -0.09500924 -0.5385004 -0.33368418 -0.03525265 -0.3618145 -0.2841586
-0.64417577 -0.38597736 -0.04022464 -0.5553485 -0.0240533 -0.55318946 -0.15808704 0.599268

fc.2.weight f4 [64, 64]
00000000: f0f8 d8bd f676 ef3d 013a 03be 5cc8 ebbd
00000010: 67e0 443d cdfa fbbd 16a6 afbd 3cb0 50bd
00000020: d2f1 0abd 9890 e03c c4ad 7cbd d3ef 603d
00000030: 85c6 943d 1225 eabd be39 a1bd a4ef 863d
00000040: 2ca0 6abd 4a09 943d 2100 eb3c 1225 ed3d
00000050: b8bd b93b 6c41 71bd cf0b f3bd 01b4 2dbd
00000060: 8a25 a5bd 701f 6b3d 00d6 493c 4d2e 0dbe
00000070: 74d4 a7bd fe80 eb3b d063 c33c e87c 813d
00000080: 721b f9bd 3df9 adbd ecc7 20bd 7133 b63d
00000090: d955 1fbe e008 b23d de2f f4bd 7c67 a73d
000000a0: bac9 e83d 8159 50bc e2bc e03d 061b ce3d
000000b0: 595b 8e3d 3e94 a7bd c466 aebd 3d90 b9bd
000000c0: 40c0 753d 8029 bcbd ea94 d3bd e861 dd3d
000000d0: c82a 8d3d 30f7 d13b 209a ab3d ccd6 a23d
000000e0: a0f9 cdbb e948 15be cca9 003d 2088 c0bb
000000f0: dcca 80bd f641 c4bd a864 d1bd 50f0 23bc
00000100: c0d1 4cbc 22c6 64bd 78c2 ae3d dc67 3dbd
00000110: 0413 fdbd aa92 61bd 8fc1 b03d 0cae 76bc
00000120: e0d3 9d3d 73dd 323d d88c 4a3d 035b febd
00000130: 3654 6d3d aec3 5c3d 0eb6 32bd fa6c 95bd
00000140: f8d0 c6bd 5a11 8cbd e74c 3ebd 0c99 7cbd
00000150: 1074 dfbc 6739 24bb bad2 18be 7eca 0fbd
00000160: a72c a83d b710 f9bd 2d53 99bd 9986 03be
00000170: 6410 543d 56e8 1fbc da5a ddbd d818 70bd
00000180: 54d9 6dbd c2bc fd3c 7ebf ab3d 3431 afbd
00000190: 73ac 05be b860 6ebd 2853 0ebe 0659 c73d
000001a0: 90ac 993d 5bdd 63bd 50fa ae3c 5820 e23d
000001b0: 5fee d93b 002a 96b9 37eb c4bd b26e c7bd
000001c0: 07e8 113d b048 70bd b217 3e3d e4b2 a6bd
000001d0: 4e35 d5bd 8b91 b3bd d04d f73c c075 b0bc
000001e0: 1a25 cbbd fbf8 06be c0e8 f9bc d0c9 a13c
000001f0: b895 d1bd 923b 8f3d 81c2 1abe bd37 e93b
00000200: 2f6e f23b cd5f 883f 63d9 ab3d 4d98 c0bd
00000210: 6127 a0bc a390 683d 4ded f1bc 872e 83c0
00000220: ac93 ad3e 01c0 183d 9066 9c3c 0030 963f
00000230: ca59 063f 2a56 423d dab4 a53c b950 e5bf
00000240: 1f42 d93e ac1a 623d 8c24 3f3f ce83 bdbd
00000250: d281 a33f ae2d b3bd 2183 4e3e 07a1 3bbd
00000260: 3239 8ebd a7e2 0c3e 7312 023c f740 0f3d
00000270: 68ca 0ec0 dbc1 c33e 4231 b33d ecb7 ce3e
00000280: eeec 5cc0 4743 9e3d ae5f 523d fc12 86bd
00000290: a49f 61bd a814 8cbd 9b1c 813e f85f 053d
000002a0: bcca a83d 982b a53e 52e5 8b3d 5d8b ecbd
000002b0: 57e0 32be c0f6 7bbb 4009 443c 9c81 06be
000002c0: 0106 aebd 780f bbbc 9d21 283e 3e42 9a3d
000002d0: e812 7a3d 4d57 01bc 4895 d43d 828b d33d
000002e0: 3c4b cbc0 e863 e33d a75a 68be 4ae8 c1bd
000002f0: 87cd 8d3d 1477 84bd addb 95bd a417 b93e
00000300: 56c4 f43d 1ff4 45be fc2d fdbd da9b 9cbd
00000310: 3c76 0b3d c612 78bd 809b 3abd 6a55 a43c
00000320: 21e2 e2bb 72d9 ebbd 6c73 3f3d dfbe b5bd
00000330: 5f56 3abe 8cba 893d fe3c 82bc 8cf2 06bd
00000340: 94ed 6d3d 32fb 893d f430 fdbd 903c a83c
00000350: b31e 91bd de32 07be 7b24 04be d4b6 62bd
00000360: 4940 0cbe 81d9 c4bc 567c ed3d 7b0b 11be
00000370: 6ed3 bc3d 63f4 a2bd 308d 653c 551b 273d
00000380: a8cd f93d 667a 7cbc 2040 853c f012 423d
00000390: b4b1 0cbe 3833 03bd 6320 b3bd ba45 e73d
000003a0: 1c4b aa3d 2d80 21be 8025 2cbd 8456 e1bd
000003b0: ec17 09bd e0e2 773c 788f 83bd e564 833c
000003c0: ca75 c73d 6026 ee3c f389 06be aec8 a93d
000003d0: f650 ddbd 341d 18bd d02a 96bc 74c9 503d
000003e0: f9ff 883d b04d b8bc f195 07be 60ca 7dbc
000003f0: 3cb0 013c 56a5 d23d f8e5 9cbd 9164 6f3d
-0.10594356 0.11692612 -0.12815095 -0.11512825 0.04806557 -0.12303696 -0.085766 -0.05094932
-0.033922024 0.027412698 -0.061689153 0.054916214 0.07264427 -0.11432852 -0.078723416 0.065886766
-0.057281658 0.07228334 0.028686585 0.11579336 0.005668368 -0.05890028 -0.11867487 -0.042407993
-0.08063801 0.057403028 0.012319088 -0.13787194 -0.08194819 0.007187008 0.023851305 0.06322652
-0.12163438 -0.08494804 -0.03925316 0.088965304 -0.15560092 0.08693099 -0.119231924 0.08174035
0.11366601 -0.012716652 0.109735265 0.10063748 0.06951017 -0.08182572 -0.08515695 -0.090607144
0.059997797 -0.09187603 -0.103311375 0.1080969 0.068929255 0.006407641 0.083790064 0.079511255
-0.006285861 -0.14578594 0.03141193 -0.0058756024 -0.06288692 -0.095828936 -0.10224277 -0.010006025
-0.01250118 -0.055853017 0.08533186 -0.046241626 -0.123571426 -0.05507151 0.08630668 -0.015056144
0.077064276 0.04366822 0.049450725 -0.12419703 0.057941638 0.053897552 -0.043630652 -0.07296176
-0.097078264 -0.06839247 -0.04646006 -0.061669394 -0.027277023 -0.0025058629 -0.14924136 -0.03510522
0.08211642 -0.12161391 -0.07486568 -0.12844314 0.051773444 -0.009759983 -0.10808344 -0.058617443
-0.05806859 0.030973796 0.083861336 -0.085543066 -0.13054065 -0.058197707 -0.13898909 0.09733777
0.07503617 -0.055631023 0.021359593 0.11041325 0.0066507305 -0.00028641522 -0.09615176 -0.0973791
0.03562167 -0.05866307 0.046409316 -0.081395894 -0.10410558 -0.087679945 0.030188471 -0.021540523
-0.09919186 -0.13180916 -0.030506492 0.019749552 -0.10233635 0.06993784 -0.1511326 0.00711724
0.007398389 1.0654236 0.083910726 -0.09404049 -0.019550027 0.05677856 -0.0295321 -4.0994296
0.33901727 0.037292484 0.019091874 1.1733398 0.5248076 0.047445454 0.020227838 -1.791526
0.4243326 0.055201218 0.7466514 -0.092536554 1.2773993 -0.08748947 0.20167209 -0.045807865
-0.06944503 0.13758336 0.007938969 0.034974065 -2.231104 0.38233837 0.087496296 0.40374696
-3.451961 0.07727676 0.05136078 -0.0654659 -0.055083886 -0.06839877 0.25217137 0.032562226
0.082417935 0.32259822 0.06830849 -0.11550019 -0.17468391 -0.0038446635 0.011965096 -0.1313538
-0.08497239 -0.022834525 0.16419072 0.07532166 0.061053187 -0.007894349 0.10380036 0.103293434
-6.352934 0.1110304 -0.22690831 -0.09468134 0.06923967 -0.06468025 -0.073172905 0.3615085
0.119515106 -0.19331406 -0.123622864 -0.07646914 0.034048304 -0.06056478 -0.045558453 0.02006026
-0.0069239293 -0.11516084 0.046740934 -0.088742964 -0.1819701 0.06725034 -0.015898224 -0.032946154
0.0580879 0.06737365 -0.12362853 0.020536691 -0.070859335 -0.13202998 -0.12904541 -0.05535014
-0.13696398 -0.024029495 0.11595981 -0.14164536 0.092200145 -0.07956769 0.0140107125 0.04079755
0.12197429 -0.015410041 0.016265929 0.04738134 -0.13739663 -0.032031268 -0.08746412 0.11292596
0.08315107 -0.15771551 -0.04202795 -0.1100283 -0.03347008 0.015129775 -0.06423849 0.016039321
0.09739263 0.029071033 -0.13138561 0.0829023 -0.10806458 -0.037137225 -0.018330961 0.05097337
0.06689448 -0.022497982 -0.13240792 -0.0154901445 0.007915553 0.102854416 -0.076610506 0.058445517

fc.2.bias f4 [64]
00000000: 8a76 d73c 7043 303d c27b 2c3f 4be0 5b3d
00000010: 98ec 91bc 3002 243d cb9a 92bd 5b45 91bd
00000020: 5518 a83e 0eed e5bc e87e a3bd 9d12 b33e
00000030: 9d0c fd3c 737d 48bc 3007 e5bd a843 c03b
00000040: 6af2 8bbd b9df adbd 5b12 62bd 838e 893c
00000050: f464 15be 1ab2 23bd 2238 473b 2e68 e0bd
00000060: 6e8a dfbd f961 243e 94e4 17be fbbe 1c3c
00000070: a391 81bd 5087 bcbd a8ed 27ba 39ce babd
00000080: f418 213d 80b0 ff3b ce07 b9bd 8a1d a13e
00000090: 65c1 06bd 3a1b c9bd d0af b2bc d590 8bbd
000000a0: 05fa 53bd 6656 d33e 5df4 4ebd f03b b0bc
000000b0: 62f3 87bd 5815 c4bd bcbe 13bd 4057 3bbd
000000c0: 8abb 003f f1a1 1a3f 6a82 bc3d 0092 b4bd
000000d0: 836d c0bd 301e e83c c474 a3bd 18eb 6abd
000000e0: e7e3 86bd 5800 a83e e60f d3bd c307 25bd
000000f0: 1057 203d bcd2 333d 240a 2fbd db84 b2bc
0.026301641 0.043033063 0.6737634 0.0536807 -0.017813012 0.04004115 -0.07158431 -0.07093307
0.32831064 -0.028067138 -0.0798319 0.34975138 0.030889804 -0.012236941 -0.111830115 0.0058674403
-0.06833346 -0.08489937 -0.055193286 0.016791588 -0.14589292 -0.039964773 0.0030398448 -0.10957371
-0.10915075 0.16052999 -0.1483329 0.009567018 -0.06326606 -0.09205496 -0.0006405958 -0.09121365
0.039330438 0.007803023 -0.09034692 0.3146785 -0.03289928 -0.09819646 -0.02181235 -0.06814734
-0.05175211 0.41276854 -0.05052601 -0.021512955 -0.066382185 -0.095743835 -0.03607057 -0.045737505
0.5028616 0.6040335 0.09204562 -0.0881691 -0.09395888 0.028334707 -0.07981256 -0.05735311
-0.06586438 0.32812762 -0.10305767 -0.040290605 0.03914553 0.043902144 -0.04273428 -0.021791866

fc.4.weight f4 [3, 64]
00000000: 2afa 8c3d 7192 cd3d 8227 64bf 16a5 143d
00000010: 9c84 a7bd e6c6 9d3d 6892 e2bc 5107 0a3d
00000020: 4c40 43bf 1f62 bebb c0ef 763d adcf 88bf
00000030: 2a89 853c 55af 9dbd d358 b83d 9a50 a13d
00000040: 40bf f03d aca6 04bc 5eb2 bb3b 97e6 f1bc
00000050: e795 833d e626 b9bd 8029 31bd d269 adbd
00000060: 7d52 c33c 80b0 73bd 8942 d83c 8aca 3a3d
00000070: 6f39 ce3d 20d3 e13b 3c26 fa3c 38e8 50bd
00000080: 381c f53c a66c d13d 00ec 55b9 943e 83bf
00000090: 8fc0 a1bc d256 ddbd 787b 90bd 3562 b73c
000000a0: d75a 353d a4f9 84bf 60d5 bebb 98a4 493d
000000b0: 0068 033b 1823 0a3d 5c33 13bd ec91 d2bc
000000c0: 433a 4cbf 2a0e 6bbf 04f3 70bd a010 6bbc
000000d0: 09b4 3bbd 1ef0 9e3d 82a5 e23d 24b5 81bd
000000e0: 24f7 12bc ef21 75bf cd5e 86bd ec00 be3d
000000f0: b51d bc3c eddc 72bd fe4b e33d 5d47 bb3d
00000100: b064 07bc c52a b63c 3590 59be c7b4 ab3c
00000110: d8f2 9cbc 609f 2abd 6dd6 38bc 8012 cabb
00000120: 4bd2 b7bf c5b5 403d 8d52 903d b796 fbbf
00000130: e600 b43c f76f b7bc 4f47 01be d079 16bd
00000140: b848 7e3d 27de ab3d 4f04 81bc 3acc 3fbc
00000150: 4597 5c3d 502e b23d 7a84 7fba 53fa 2d39
00000160: 6e2e dc3b 8e9d 41be aa6a cebd a958 e23d
00000170: 829a d0bd ac82 683d 7f22 363d 53c4 94bd
00000180: b10b 663d 9c41 e9bd 609b 8dbd 02f1 0bc0
00000190: f1b5 ef3d 3a0a 4a3d 00f9 fabc b8b4 033d
000001a0: d3d7 b53c a72b 09c0 a3c1 f0bb 2281 a33d
000001b0: 9c86 10bd 162f 8a3d 9c6b 3fbd 2060 4b3d
000001c0: d9f5 d7be 7ce7 97be 626b 45bd 04bd a43d
000001d0: 4028 96bb d4c2 b33d b20f b6bc ad49 203d
000001e0: 0b48 633d 1e59 1cc0 8d33 1cbd e82f 56bd
000001f0: eec8 b93c 3b19 9bbd 383e 9a3c 46f0 36bd
00000200: 4cce b8bd 3ef6 8bbd e435 4dbf ee71 6abd
00000210: 20aa f23d fc04 873d f7d1 973a 5c58 8bbd
00000220: 23e5 6dbf ae16 a33c 9404 50bd ccfe 87bf
00000230: 6b38 083c 4ea2 a93c c0e2 e23d 566d bd3d
00000240: d3d8 cabd 3073 0e3c 7fc2 7f3d f16c a03d
00000250: 0081 89bd c013 613b ed53 3abc 1565 973d
00000260: 3f42 d93c 0e4c 42be f3cc 8dbd b964 b03d
00000270: 6cff c83c 3602 c03d 4a3b e0bd 81fe b63d
00000280: e957 bb3c 803c 38bb 18fb bbbd 4f97 7abf
00000290: 89b8 c83d 187a d43d 7804 4dbd 12a8 36bc
000002a0: 0491 6bbd f08c 90bf a03e cb3d 22d7 983d
000002b0: f68f d73d b8a7 9f3d a000 563d 7412 18bd
000002c0: e557 5dbf 29df 4fbf b0d0 a43d 56ef f33d
000002d0: 7bf4 263e 3888 95bc 652c 1fbd 6272 92bd
000002e0: 20e8 10bd 7f51 4ebf 8010 f1bc ba77 0fbc
000002f0: 5a05 623d d5e8 cfbd 5a4f d93d 031b 0c3d
0.068836525 0.10037697 -0.89122784 0.03629025 -0.0817959 0.077039525 -0.027657703 0.033698384
-0.76269984 -0.005810037 0.060287237 -1.0688378 0.016300756 -0.076994576 0.09001317 0.07876702
0.11755228 -0.008096378 0.00572805 -0.0295289 0.06425076 -0.090406224 -0.043252468 -0.08467449
0.023843044 -0.059494495 0.026398914 0.045603313 0.10069548 0.006891623 0.03053581 -0.05100271
0.029920682 0.10225801 -0.0002040118 -1.0253472 -0.01974514 -0.10807575 -0.070548 0.022385696
0.044276085 -1.0388684 -0.005823776 0.049229234 0.0020051003 0.033724874 -0.035937652 -0.025704347
-0.797764 -0.9181849 -0.058825508 -0.014347225 -0.04582599 0.077606425 0.11066724 -0.06333378
-0.008970056 -0.95754904 -0.065610506 0.092775196 0.022963384 -0.059292722 0.11098479 0.09144471
-0.008263752 0.022237191 -0.21246417 0.020960225 -0.019158766 -0.041655898 -0.011281592 -0.006166756
-1.4361051 0.04704835 0.07046995 -1.965537 0.021973085 -0.022392256 -0.12624858 -0.036737263
0.06208107 0.083919816 -0.015749125 -0.011706406 0.0538552 0.0870024 -0.00097472186 0.00016591819
0.006719402 -0.18907759 -0.10078938 0.11052067 -0.1018572 0.056765243 0.04446649 -0.072640084
0.056163494 -0.11389467 -0.06914401 -2.186585 0.117046244 0.04932616 -0.03063631 0.03215477
0.02219764 -2.1432893 -0.007347302 0.079836145 -0.035284624 0.06747262 -0.046733484 0.04965222
-0.42179754 -0.29668796 -0.04819811 0.08043864 -0.004582435 0.08777395 -0.022224281 0.039132763
0.055488627 -2.4429393 -0.0381351 -0.05229178 0.022678819 -0.07573172 0.018828496 -0.044662736
-0.09023723 -0.06834076 -0.80160356 -0.057237558 0.11848855 0.065927476 0.001158296 -0.068039626
-0.9292776 0.019908275 -0.050785616 -1.0624633 0.008314232 0.020707276 0.110784054 0.0924937
-0.09904637 0.008694455 0.062441345 0.07833279 -0.06714058 0.0034344047 -0.0113725485 0.07392327
0.026520846 -0.18974325 -0.069238566 0.08612961 0.024535857 0.09375422 -0.109488085 0.089352615
0.022869067 -0.0028112233 -0.09178752 -0.9788713 0.09800822 0.1037485 -0.05005309 -0.0111484695
-0.057511345 -1.1293011 0.09924054 0.07462908 0.10525505 0.07795662 0.05224669 -0.037126973
-0.8646224 -0.8119989 0.080476165 0.11910884 0.163042 -0.01825343 -0.038860697 -0.07150723
-0.03537762 -0.80593103 -0.029426813 -0.008756572 0.055180885 -0.10151831 0.10610838 0.034205448

fc.4.bias f4 [3]
00000000: 64ea b7bf a923 f2bd 8392 c2bf
-1.4368405 -0.11823208 -1.5200962
