classics/dqn_weights.pth (torch, 20848 bytes, 6 tensors)

fc.0.weight f4 [64, 2]
00000000: ca86 4fbd 860e 943e 53d1 40be ce28 0e41
00000010: b935 133e 05a2 08bf 64ca 4cbe d3f7 bc3e
00000020: 8712 58be aa04 e0bd 7e83 193e 2dc7 33bf
00000030: f4f0 82be 90a9 ad3e afd8 f3be 2cd1 15bf
00000040: b6f2 96be d56a 363e e3e5 babe 0226 ab3f
00000050: 1426 833c 412d 4b3f 1604 293f 7271 6c3e
00000060: 9c73 0dbd fa71 313f c9ec b5bc 48c5 a940
00000070: b694 5e3f ed06 1b40 8919 db3c 8f78 1440
00000080: 9f26 033e 9b01 54be 86f0 043f c92e 9f40
00000090: e635 a7bd e929 fcbd f465 5f3d 679b 353e
000000a0: 7f07 403f 7597 5e3f 807c 233f 5040 ad3e
000000b0: 30a2 d73c 0e6a a73f 82b7 02bf d108 58be
000000c0: 82c6 073f 2d46 183f d929 4fbe 0335 70be
000000d0: 355a 6c3e a993 a2c0 8381 4a3f 6f2a 2a3f
000000e0: 2bcc 4dbe 849b b9be 5f23 d83d de5a 2fbf
000000f0: 98dc 35be 69a3 28be 49ef 8b3d 6fd4 9d3e
00000100: 05f8 aa3e 08d4 4c3e 99ef 783f 1632 5640
00000110: a621 ee3b d755 97be 04e5 d23b 8c33 a53e
00000120: 8800 eb3c 16b9 c13f 5adc 0dbf 9a79 f53f
00000130: e102 233e e42d 293f 0d8a 273d 268f 763f
00000140: b65b 3139 3ec1 893f b48e 123f 1f23 05bf
00000150: 7dc4 6ebe ccc3 aebe 1521 993f c269 0d40
00000160: 41da 093f b86b 1ebd 2edd a4be eef4 8ebe
00000170: e181 b4be 2d93 d73e 85e7 d4be 8162 15be
00000180: 7915 623e e868 b3bf 56e3 b5bc 58b1 a13e
00000190: 06cc 373e 5b13 d1be cad2 b1be f2e8 893e
000001a0: 3629 5fbe 7445 12bf 65dd e73b 7991 c73e
000001b0: a8fb d83d e20f 013f d717 703f c676 c940
000001c0: e6b3 823e 405e c03f 8a72 253d c7e0 f13f
000001d0: 5848 aebe c65c c2be 5951 d93d 8772 0dbf
000001e0: 8599 bd3e a485 c03e 140b 3a3f a93e 8240
000001f0: f7ef eb3c 80ad bdbe 6885 14bf 2f4b af40
-0.050665654 0.2891733 -0.18829851 8.884962 0.14375962 -0.5337222 -0.19999081 0.36907825
-0.21100818 -0.109383896 0.14991567 -0.70225793 -0.25574458 0.33918428 -0.47626254 -0.58522296
-0.2948205 0.1781419 -0.36503515 1.3370974 0.016009368 0.79365927 0.6602186 0.23090151
-0.03453408 0.6931454 -0.022207635 5.305332 0.86945665 2.4222977 0.026745575 2.3198583
0.12807702 -0.20703737 0.5192951 4.974461 -0.08164577 -0.12312681 0.05454059 0.17735063
0.7501144 0.86949855 0.63861847 0.3383813 0.026322454 1.307924 -0.5106126 -0.21097113
0.53037274 0.5948208 -0.20230807 -0.23457722 0.23081286 -5.080525 0.7910387 0.66471
-0.20097415 -0.36251462 0.105536215 -0.6849803 -0.17759931 -0.16468586 0.068327494 0.30826136
0.3339235 0.20002759 0.97240597 3.346807 0.007267195 -0.29557678 0.006435992 0.3226589
0.028686777 1.5134609 -0.55414355 1.9177735 0.15919067 0.6608565 0.04090314 0.9631218
0.000169142 1.0762098 0.57249 -0.52006716 -0.23317142 -0.34133756 1.1963221 2.20958
0.53848654 -0.038676947 -0.32199997 -0.27921242 -0.3525534 0.42104474 -0.41582885 -0.14588358
0.22078504 -1.401639 -0.022203129 0.31580615 0.17948923 -0.4083508 -0.34731132 0.26935536
-0.21793064 -0.5713723 0.007075953 0.38978174 0.105948746 0.5041486 0.93786377 6.2957487
0.25527877 1.5028763 0.040392436 1.8896722 -0.3403957 -0.37961406 0.10611219 -0.5525288
0.3703119 0.3760196 0.72673154 4.070149 0.028800948 -0.37046432 -0.5801606 5.4779277

fc.0.bias f4 [64]
00000000: 70bb 09bf cde0 b4bd 36c9 d73e 2018 8dbe
00000010: b5f4 93be 40c4 13bf 4c9f a3be 30e6 1bbf
00000020: 1198 623e c6a4 373e 627d 6abd 3f75 d7be
00000030: a0a3 80bd 9629 c13c dc82 06bf e81f 15be
00000040: 4be8 c4be b735 8dbe 1248 133f 6810 18bd
00000050: 9aac e5be 314a 2bbf b1f8 94bd 3ca5 1fbf
00000060: 0b7d 16bf 097d c4be dc4d 163d c9a5 d7be
00000070: 7f91 a4be 4c19 d5be f20b e5be 039c 393f
00000080: 53d7 0cbf c621 cebe 7df9 62bc c2c8 a7bd
00000090: f713 01be a203 8f3e 8f5e e2be 0b54 aabd
000000a0: 0931 b0bd df4d cabe f2d6 b9be e856 08bf
000000b0: 9dac 8abe ca36 1cbf b349 29bf f6f6 00bf
000000c0: 5dfe d63e b83f a4be 4eb4 f43e cb90 273f
000000d0: 9f6e 19bf 590e c7bc d179 90be 415e cebe
000000e0: b5d7 6d3e 6efe 21be 403a 023f 9c90 12be
000000f0: 64e7 82be 90cb 46be 004f 9bbc b3db cebe
-0.5380163 -0.0883194 0.421457 -0.27557468 -0.28897634 -0.5772133 -0.3195747 -0.60898113
0.22128321 0.1793395 -0.05724848 -0.4208164 -0.06281209 0.0235794 -0.52543426 -0.14562953
-0.38458475 -0.27580044 0.57531846 -0.03712502 -0.44858247 -0.6691008 -0.072739966 -0.623615
-0.5878455 -0.38376644 0.036695346 -0.42118672 -0.32142255 -0.41620862 -0.44735676 0.7250368
-0.5501606 -0.40260142 -0.013853428 -0.081925884 -0.12605272 0.2793246 -0.44212767 -0.08316811
-0.08603103 -0.39512536 -0.36296803 -0.5325761 -0.27084818 -0.610211 -0.6612808 -0.5037683
0.4199094 -0.32079864 0.47793812 0.6545531 -0.5993442 -0.024298834 -0.2821794 -0.40306285
0.23226817 -0.15819713 0.5087013 -0.14312977 -0.25567162 -0.1941359 -0.018958569 -0.40401992

fc.2.weight f4 [64, 64]
00000000: 80e3 8fba 871a 39bf a97f 6aba 7103 b2bd
00000010: 8268 f7bc 74f5 b2bd 55e8 9ebd 3566 693e
00000020: 2c28 84be eabe b0be 879b 7fbc 3069 cb3c
00000030: 20f7 f7be e9fd 113f 4669 0abf f0ab 343e
00000040: 0a13 94bd 1a49 2b3e 39aa cbbd 3652 1f3e
00000050: 4f49 d9be 9e81 8b3d d50f 4ebe f955 2d3d
00000060: f487 bfbd 20dc c0bd d1f1 acbe 141a 12bf
00000070: 9feb 88bd c40e 213d 94b5 bd3d 7c8e ca3d
00000080: bed0 aa3d d428 20bf 31f0 ae3d 8c6d f8bd
00000090: 6a85 10be a867 97be 48e5 fcbd 1aad c1bd
000000a0: 8afe 613e f449 c6bd 09ac b53c f7e1 bebe
000000b0: 9210 babe 064f d7bd 4c1f 343d 7293 8bbd
000000c0: dd1c bdbc ba02 81bd a01e a03b 7ed9 1bbd
000000d0: e0a9 ffbc bc98 b9bc d823 2bbd 458a e6be
000000e0: cacf 2cbc 409f dc3d 3aa5 04be ac3f 373d
000000f0: c008 b2bc 2167 57bd 55e4 ca3d 9c82 413f
00000100: 5255 ab3d e612 c73d 78d6 90bc fa74 cd3d
00000110: 7442 18bd d019 ca3c 205f 063d 3802 ea3d
00000120: 3a3e f9bd 6cf9 0bbd 6059 90bd 945f 9cbd
00000130: d64f f03d 70a8 653d 344c b23d 90bf f6bd
00000140: aca5 e53d 6848 c43d 1037 3b3c 1696 933d
00000150: 08a4 89bd c491 1f3d 3489 74bd 1cf1 ed3d
00000160: 10ad 543c 98d0 a33c 28cd 423d f8a9 d8bc
00000170: 9007 c9bd 8e3b b43d f4a0 033d 90db a7bd
00000180: e44b 80bd d0d7 193d b8c9 92bd b89c 8e3c
00000190: c0d0 823b 101c a9bc bc34 12bd 8e5f c4bd
000001a0: b0e7 1a3c 34bf 653d 6aae 8b3d 100e 043c
000001b0: 00b4 3c3a 4439 1a3d 7a7c febd 98fd c63d
000001c0: 00c8 a03b 806d e4bc e8b5 a0bc 88c6 fcbd
000001d0: 3e7a ac3d 50af a13c 76d0 afbd 1819 58bd
000001e0: 143c 11bd 6216 db3d 400e 8fbc 0049 ddbc
000001f0: 40b5 d93c d852 91bd 34eb f33d 2009 99bb
00000200: 6cc9 593d 20d2 28bc b982 a1bd 8b9d 13bd
00000210: 8143 7a3d c2cc c6bd e7cb f439 c83a 733d
00000220: 098f 87bf 16f4 1fc0 dff8 b8bd d4e2 15bd
00000230: 1394 4ebf d139 a73d a5bd a53f 5e17 113e
00000240: 9c67 13bd b216 00bf fdcf 42be 735a 54bc
00000250: a6cf 913f b01c 77bd 5944 8bbe 6ebf 853d
00000260: cae7 a3bd 686d 233d 9a72 8cbf e3f7 8d3f
00000270: 5259 d03d 0c2e 323d ee88 db3d 266d 68bd
00000280: 64aa 26bd 2207 a93f 2a2a a53c a8e2 e4bc
00000290: ce08 05be 8cf2 26c0 6213 ec3d 8796 e5be
000002a0: 7fd6 2ebc b838 8abd e883 b3bd 222a 823f
000002b0: fb51 183f d0f0 e5bc 4019 ffbc d881 f8bc
000002c0: 6c53 263d 806e 5a3b 922f 96bc 7f17 eebe
000002d0: b477 193d 5436 e4bd 64a8 dc3d 343f 993f
000002e0: 1266 e33c d420 8e3d 096f 08bf 1cd2 863d
000002f0: ce8b b63d 84c7 b13e 30f4 c7bc da07 8a3d
00000300: d8ae 59bd 460a bf3e e2e0 6a3e 3a73 9c3d
00000310: a223 ac3c 403e 6a3c 4057 3c3d a29d d8bc
00000320: 2807 103d 20a2 093d b843 e53d 9e3f a7bd
00000330: bc8a 78bd 7385 fb3e 7e24 10c0 032c ce3c
00000340: a2d9 e53d ea17 fb3d e60e ae3e 120e 883c
00000350: ed48 cebf 00a2 55bc fb0c 433d 0a10 4bbd
00000360: f8a3 c83c da91 c5bd 6e02 51be 4305 e5bf
00000370: bd07 e83d 3004 9b3d 062a d63d 3e50 8e3e
00000380: 7060 13bc 10d1 10c0 d6f2 3fbd 80df f1bd
00000390: 80a3 c93d 13f0 123e 6074 eabc ee39 fb3c
000003a0: ce33 d93c e02a 8bbd ef47 b1bd 230b c7bf
000003b0: a704 4abf d424 3b3d 1c97 efbd 1dae 4abe
000003c0: f767 a43e a842 0cbd 8bae ad3e b611 993e
000003d0: 0e00 9e3d 559d c53d 5ce3 643d b514 45c0
000003e0: 0c9d 893e d51d bc3d 6f43 903e 8633 f23d
000003f0: 8c4d 02bd 532a b5be 156e be3d 0f75 2d3e
-0.0010977834 -0.723061 -0.00089454144 -0.08692063 -0.0302012 -0.08738223 -0.077591576 0.22792895
-0.258119 -0.34520656 -0.015601045 0.02483043 -0.4843073 0.5702806 -0.54066885 0.17643714
-0.07230194 0.16727105 -0.09944577 0.15558705 -0.42438743 0.06811832 -0.20123227 0.042318318
-0.09352103 -0.094169855 -0.3377824 -0.5707104 -0.06685566 0.039320722 0.09263149 0.09890458
0.08340596 -0.625623 0.085419066 -0.121302694 -0.14113393 -0.2957127 -0.123484194 -0.09456845
0.22069755 -0.09682074 0.02217676 -0.37281772 -0.36340767 -0.105131194 0.04397516 -0.06815232
-0.023085052 -0.06299348 0.0048864633 -0.038049214 -0.031208932 -0.022655837 -0.04178223 -0.45027366
-0.010547588 0.10772562 -0.12953654 0.044738457 -0.021732688 -0.052588586 0.09906832 0.7558992
0.08365883 0.097204015 -0.017680392 0.10032077 -0.03717275 0.024670511 0.032805562 0.114262044
-0.12170072 -0.034173414 -0.07048297 -0.076354176 0.117339775 0.056068838 0.08705941 -0.120482564
0.1121324 0.09584123 0.011426702 0.07206361 -0.067207396 0.038957372 -0.05970116 0.116182536
0.012980714 0.019996926 0.047558933 -0.026448235 -0.098158956 0.08800422 0.03213592 -0.08196175
-0.06264475 0.03755933 -0.07167381 0.017408714 0.00399217 -0.020643264 -0.035694823 -0.09588538
0.009454653 0.05609055 0.06820376 0.008059993 0.0007198453 0.03765227 -0.12426086 0.09716338
0.0049066544 -0.027884245 -0.01961799 -0.12342554 0.08421753 0.019736916 -0.08584683 -0.052758306
-0.035457686 0.106976286 -0.01746285 -0.027012348 0.026575685 -0.07095879 0.11910096 -0.0046702772
0.053170606 -0.010304004 -0.078862615 -0.036038917 0.061099533 -0.09707023 0.00046691226 0.05938223
-1.0590526 -2.4992728 -0.090318434 -0.036593273 -0.80694693 0.081653245 1.29485 0.1416907
-0.03598748 -0.5003463 -0.19024654 -0.012961018 1.1391494 -0.060330093 -0.27200583 0.06530653
-0.08003195 0.03989926 -1.0972474 1.1091274 0.101732865 0.043500945 0.10719477 -0.056744717
-0.04068984 1.3205302 0.020161707 -0.02794011 -0.1299164 -2.608554 0.115271345 -0.44841406
-0.010671257 -0.067490995 -0.087653935 1.0169108 0.5950009 -0.02806893 -0.03113997 -0.030335352
0.0406069 0.0033330023 -0.01833323 -0.465023 0.037467673 -0.11143175 0.107743055 1.1972413
0.027758632 0.06939855 -0.53294426 0.06583044 0.089133844 0.3472253 -0.02440843 0.06739779
-0.05314526 0.37312526 0.22937348 0.07639165 0.021013085 0.014297068 0.045981646 -0.026442353
0.035163075 0.03360188 0.11194557 -0.08166431 -0.060679182 0.4912525 -2.2522273 0.02516747
0.11223151 0.122604206 0.33995742 0.016608272 -1.6116005 -0.013039112 0.0476198 -0.049575843
0.024492249 -0.096469596 -0.20411083 -1.7892231 0.11329601 0.07569158 0.10457234 0.27795595
-0.00899516 -2.2627602 -0.046862446 -0.11810207 0.09845638 0.14349394 -0.028619945 0.030667271
0.02651396 -0.06795287 -0.08656298 -1.5550274 -0.7891335 0.04568942 -0.11698744 -0.19792981
0.3211057 -0.034243256 0.33922228 0.29896325 0.07714854 0.09649149 0.05588089 -3.0793889
0.2687763 0.091853775 0.28176448 0.118262336 -0.031812236 -0.35383853 0.0929834 0.16939186

fc.2.bias f4 [64]
00000000: d694 6f3c 30a4 a3bc 9ced 0abe 5532 ef3e
00000010: e0c4 4dbd 7941 c4bd 8a40 a93e 5222 19bc
00000020: 903a e7bd 66d7 f4bd d0f0 1bbd 243d 9bbd
00000030: 102e 2f3f a057 513d c9ae abbd aa79 0d3f
00000040: d0f9 d2bd 62c1 92bd 4159 ff3e 9eb0 8b3d
00000050: 3895 a5bd f386 9ebd 47d1 3a3d 1507 01bd
00000060: 6f5f f4bd 518f 8f3d b874 01bd 27a8 30bd
00000070: 00da bd3e 1861 093f b45d 97bd a91b 1abe
00000080: dc82 153d 3cb9 b1bd 6d24 023d b9e7 4cbd
00000090: 9c62 febd ce36 0cbe 936a f73e d2bb 5dbd
000000a0: 782e 55bd e68d 4cbd 5568 24bd 10e0 43bd
000000b0: 1e7a 073d c441 a13d 83ba f23e 181f fcbd
000000c0: 0094 e23e 31a9 acbd d834 b43c 4597 ddbc
000000d0: 7d79 d93c bc9f 18be d940 433c 5978 a63d
000000e0: 83a4 143e 1785 0b3f 9017 38bd 8260 153d
000000f0: 989c 05be 0bc3 bdbd 1831 10bd 5bbe 013d
0.014622888 -0.019975752 -0.13567203 0.46718088 -0.050236583 -0.095828004 0.33057052 -0.0093465615
-0.11290467 -0.119551465 -0.038071454 -0.07580021 0.6842966 0.051108956 -0.08382947 0.5526377
-0.10301554 -0.07165791 0.49872783 0.068207964 -0.08085102 -0.07740583 0.04560974 -0.031500895
-0.11932265 0.07009757 -0.031605452 -0.043129113 0.37080383 0.5366378 -0.07390919 -0.15049614
0.03650175 -0.08677909 0.03177302 -0.050025675 -0.12421152 -0.13692781 0.48323497 -0.054134198
-0.05204627 -0.049940012 -0.04013856 -0.047821105 0.033075444 0.07873872 0.47407922 -0.12310618
0.4425354 -0.08430708 0.021997854 -0.02704967 0.026547188 -0.14904684 0.011917316 0.08128423
0.14515881 0.54499954 -0.044944346 0.03646899 -0.13048017 -0.09265717 -0.03520307 0.031675678

fc.4.weight f4 [3, 64]
00000000: 8ea8 333d c80d eb3d 481e a3be af0b 00bf
00000010: b842 5a3d 48b2 073e 7238 b2be e1ef eabd
00000020: 3cf5 cabc 910c 7bbd 5a33 88bd 5415 44bc
00000030: a1a7 05bf c4ea d43d 8423 2cbd 63de 03bf
00000040: 575e e6bd b362 003d 75b1 1bbf 8f62 acbd
00000050: 1462 55bd 5581 f5bc 712f 383d 1b80 6d3c
00000060: 8943 8dbc de0b 13bd b83f b13d bbf2 d0bc
00000070: c253 12bf 599d 2ebf 8c23 c53d 686e a43d
00000080: 70cc b0bd 7c7e 6e3d 6ff1 943d e9d7 debc
00000090: ea99 a0bd 838a cdbc 6cc3 f9be d71a 95bd
000000a0: 2376 4fbb 506f 603c 38cd 86bd 686c 03bd
000000b0: 8885 e3bc e58a 5f3d e743 33bf 184d 7cbd
000000c0: 18dc 30bf 4c13 0bbc 7cc4 933d 1c30 043d
000000d0: 0a67 213d c83c 873d e85c c03c 61b7 8dbd
000000e0: 981e fa3d 4428 32bf 5e73 b2bd fe4a 593d
000000f0: e351 34bd 9ec5 f1bd 1e6c d53d d4a2 a73c
00000100: 5b7e 323c c0f8 1cbd 6ea3 353e b472 02bf
00000110: 402d 483b fa6c f0be 2ec8 a3be be97 8dbc
00000120: ca94 f7bb 606c 45bc 6089 f93b 1220 e8b8
00000130: ede7 10bf 687f 883d 701f 283d bdeb f6be
00000140: 36b8 b4bd ef41 2a3c 0bbe 1dbf 68c1 3a3d
00000150: c89d f7bc e261 22bd be59 7e3c fae3 4b3b
00000160: 3527 e1bc 46d3 853d f844 afbd f48c 90bc
00000170: 1a8e 17bf cc0c 41bf 3656 debd d4db 303d
00000180: a6b5 d3bd 8864 f2bc 2e62 5ebb c6be 233d
00000190: 506a da3d 4077 04bb d915 04bf 78dd 943c
000001a0: e3d0 70bc 1ed5 a5bd e7d4 2f3d 506f 54bc
000001b0: 3cd8 c7bc 1c59 073d 74a3 2abf 369d b43d
000001c0: da32 29bf ecfa 963b d865 02bd 6338 64bd
000001d0: 1b2a 57bc bd0d bb3d 6069 13bd c47d b63c
000001e0: 7c05 2f3d feb5 28bf c0ad 41bb 5a14 c6bc
000001f0: ac36 5fbb 9fe2 933d 2c69 693d beea 0d3d
00000200: 9468 57bd 5065 40bc 4871 7f3f cc44 dabe
00000210: 50f9 f6bd c267 c83f 869d 47be 17b7 253b
00000220: 1d2b ed3c 6d2d ac3c 9044 bfbc 2e31 463d
00000230: f6d4 07bf d718 063d a474 133d e22a 0cbf
00000240: 5829 b13c f312 823d 91d1 0dbf 4d16 6b3d
00000250: c8af f03c c7e9 983c 40e5 5b3d e73e 3abb
00000260: 9ee5 a73d 31f8 5b3d 7887 c03d db65 a7bc
00000270: edaa d8be 93e6 5dbf 4afb e73d 92ab 633d
00000280: 3c01 49bc c622 8d3d ee91 56bd 3927 1e3d
00000290: 6000 dcbd b747 dd3b e795 c5be 5b81 823c
000002a0: f2e4 3bbd e376 703d 23d2 bdbc e29e a8bd
000002b0: 0f36 c3bc 08d4 a93d ee04 75bf 0095 45bb
000002c0: f9b9 1dbf 00ef 103d f843 da3c 9597 47bd
000002d0: 2bb7 403c 74d3 6f3a 4aa3 ab3c 9aaa e33b
000002e0: 00b5 08be 1b02 7abf 28ea 703d 7aec 1bbd
000002f0: 81bd bcbc a76b 583d 14a1 40bd 7a62 97bd
0.04386192 0.11477238 -0.3185904 -0.5001783 0.053286284 0.13251603 -0.3480869 -0.114715345
-0.02477514 -0.06129128 -0.066504195 -0.011967976 -0.52208906 0.103963405 -0.042026058 -0.5151121
-0.11248463 0.031344127 -0.6081765 -0.08417236 -0.052095488 -0.029968897 0.04496712 0.014495875
-0.017244117 -0.03589999 0.086547315 -0.025506368 -0.57159054 -0.68208843 0.09625921 0.08028871
-0.08632743 0.058226094 0.07272612 -0.027202563 -0.07841857 -0.025090462 -0.48781908 -0.0728051
-0.0031656108 0.013698414 -0.06582111 -0.032085806 -0.027773634 0.05457582 -0.70025486 -0.06159696
-0.69085836 -0.008488487 0.07215211 0.032272443 0.039404906 0.0660339 0.023481801 -0.069197424
0.122128665 -0.6959269 -0.08713411 0.053050034 -0.044023406 -0.118052706 0.10421012 0.020463385
0.010894383 -0.038323164 0.17738125 -0.50956273 0.003054455 -0.46958143 -0.31988662 -0.01728427
-0.007555579 -0.012049764 0.0076152533 -0.000110685956 -0.5660389 0.06664926 0.041045606 -0.4822673
-0.08824198 0.010391696 -0.6161811 0.045594603 -0.030226603 -0.03964413 0.015524326 0.0031111226
-0.027484516 0.06534438 -0.085580766 -0.017645337 -0.59201205 -0.7541015 -0.10856287 0.043178394
-0.10337381 -0.029588953 -0.0033933031 0.039976858 0.10664809 -0.002021268 -0.51595837 0.01817201
-0.01469824 -0.080972895 0.04292765 -0.012965992 -0.0243951 0.033043966 -0.6665566 0.08819048
-0.6609322 0.004607549 -0.031835407 -0.055717837 -0.013132597 0.0913348 -0.035989165 0.022276767
0.04272984 -0.659027 -0.0029553026 -0.024179626 -0.0034059687 0.07220959 0.056985065 0.034647696
-0.052589968 -0.011742905 0.9978223 -0.42630613 -0.12059271 1.5656664 -0.19493684 0.0025286132
0.028951222 0.021017754 -0.023348123 0.048386745 -0.5305933 0.032738533 0.03599991 -0.54752934
0.02162616 0.063512705 -0.553979 0.057394315 0.029380694 0.018666161 0.053685427 -0.002841884
0.08198093 0.05370349 0.094008386 -0.02043431 -0.42317906 -0.86679953 0.113272265 0.055583544
-0.012268361 0.06891398 -0.052385263 0.038611624 -0.10742259 0.006752934 -0.3859093 0.015930822
-0.045872636 0.05870713 -0.02317149 -0.082334295 -0.023829488 0.08292395 -0.9571065 -0.0030148625
-0.61611897 0.03538418 0.026643738 -0.048728544 0.011762421 0.00091486354 0.020951886 0.0069478275
-0.13350296 -0.9765946 0.05881706 -0.03806732 -0.023039581 0.05283704 -0.047028616 -0.0739183

fc.4.bias f4 [3]
00000000: fe24 91bf 7f5f 84bf 4f35 37bf
-1.1339414 -1.0341643 -0.7156572
