classics/dqn_weights.pth (torch, 20848 bytes, 6 tensors)

fc.0.weight f4 [64, 2]
00000000: 2436 b2be ac0d 1d3f 4ea9 e73c 627a e6bd
00000010: 0bed 85bd b1ff f33c e258 c03d 2263 13bf
00000020: 0f8c bc3c 5f3e fe3e 55c1 1cbe 418a 473f
00000030: 32e2 353e bb10 193f 296d b5be 2c39 cb3e
00000040: 5a5f 223f 7e7c 103f e054 aa3c f95e f9be
00000050: c039 c43c 6690 273f fbe1 903e aff8 d6be
00000060: 32e5 2c3f 15c9 c63e b59c 903c 3ce1 82be
00000070: 53f2 9f38 11ad f43e 6b0d d93c ebe4 28bf
00000080: e411 0bbe b44e 81bf b9be 083d d1a3 3abf
00000090: 8b93 2c3e 4d56 2abf 625a a1be eea0 14bf
000000a0: 8464 e83d 221d 163d 79b3 3d3f 2bf6 9940
000000b0: 2b3e 9e3f 3aca d5be 862d e03d 910e ffbf
000000c0: b731 f3be 99f7 dc3e 595a 173f 8cc9 9abe
000000d0: 81fb 113f 3bb8 ecbe c9cc 723e afac 18bf
000000e0: 4c6a 2abc 325f f03e bda0 613f 6b93 9040
000000f0: f8b8 153e 1a99 56bf 0f0a dc3d 5b87 a5bf
00000100: d602 d63d 8af6 0cbe 63e5 173f f5ac 203f
00000110: 69ee 0d3e 02dc b63e 9c2c cb3d ca06 283f
00000120: 0e13 863d 6884 76bf ac86 ae3d 5d7f 98bb
00000130: 18cf 7b3d 3184 0dbf 22bf 5c3f bde2 4440
00000140: 32b1 1dbe 9576 00bf 68e4 bb3b 5cfc 09bf
00000150: 1430 99be d606 63c0 9a8f ae3e 7421 9e3e
00000160: d471 0dbe eb90 1a40 bf2c e2bb de3f a03d
00000170: eee5 b2be 791b 85be f595 cdbb 7df6 02bf
00000180: b075 ca3e 25e0 9d3e 53eb c63d e864 80bf
00000190: e1a6 17be a135 e33d e81c 493e ade0 953d
000001a0: 9644 853c 389c 52bf 6f49 c7be f559 f6be
000001b0: a969 43be 0dc9 263d 8a67 3e3e beb2 0dbf
000001c0: d3a8 2cbe 46f3 013f d0a5 3c3c ee0c 16bc
000001d0: af84 aebd fd59 a0be 02d8 9fbe edd6 1ebf
000001e0: 0327 01be eb11 6fbc 223c 3cbb ee8c e73e
000001f0: f26b a5bd d659 30bf ab65 903f b570 263f
-0.3480693 0.61348987 0.028278973 -0.112538114 -0.06539353 0.02978501 0.09391953 -0.5757314
0.023016004 0.4965696 -0.15308125 0.77945334 0.17762068 0.59791154 -0.35434845 0.39692056
0.63426745 0.5643996 0.020792425 -0.4870527 0.023953319 0.6545471 0.2829741 -0.41986606
0.67537224 0.38825288 0.017652849 -0.25562465 7.626847e-05 0.4778829 0.026495656 -0.659743
-0.13581043 -1.0102143 0.033385012 -0.72906214 0.16853158 -0.66537935 -0.3151427 -0.5805806
0.11347297 0.036648877 0.7410198 4.8113 1.2362722 -0.4175585 0.10946183 -1.992632
-0.47498867 0.43157652 0.59122235 -0.30231893 0.5702439 -0.46234307 0.23710932 -0.59638494
-0.01040132 0.46947628 0.8813589 4.5179954 0.14621341 -0.83827364 0.10744106 -1.2931932
0.1044976 -0.13765922 0.5933439 0.6276391 0.13860478 0.35714728 0.09920618 0.6563536
0.06546603 -0.96295786 0.0852178 -0.0046538548 0.061476797 -0.55279833 0.86229146 3.076339
-0.15399626 -0.5018094 0.0057340153 -0.53900695 -0.29919493 -3.5472922 0.34093934 0.30884898
-0.13812953 2.415095 -0.006902307 0.07824682 -0.34941047 -0.25997522 -0.00627398 -0.5115736
0.39542913 0.3083507 0.09712853 -1.0030794 -0.14809753 0.11094213 0.19639933 0.07318244
0.016268056 -0.8226962 -0.38923213 -0.48115507 -0.19083275 0.04071908 0.18594185 -0.55350864
-0.16861276 0.5076183 0.011514142 -0.009158356 -0.08521401 -0.31318656 -0.31219488 -0.620467
-0.12612538 -0.014591674 -0.0028722365 0.45224708 -0.080772296 -0.6888708 1.1281027 0.6501573

fc.0.bias f4 [64]
00000000: 3af3 1ebf 43ae 5bbc 3f87 7abe c939 153f
00000010: 93aa 26bd 73d3 123f dfd8 09be 53a2 dcbe
00000020: 68a6 c6be 4deb b0bc 0c1b e3be c4da 09bf
00000030: 4dd6 efbe d372 29bc 1a93 41bd 60ae 1abd
00000040: 99c6 093f 4ece 4c3d 65e0 4abe db0d 20bf
00000050: ca41 f5be e228 acbe c856 0dbf 251b babd
00000060: 5ac3 13bf ac9d adbe c6a1 a0be e8d2 193f
00000070: 63c1 62bd 1a08 a2be f69f acbd 153d acbd
00000080: 4a5b cb3e 6502 27bf 8302 b0bd 5fc5 93be
00000090: fd69 6bbd 742f 37be 183c d5bc f79d bbbe
000000a0: a72d e3bc b737 01bd 5992 f2bd 0ae7 34bf
000000b0: 9433 8fbe b3a7 20bc 66b0 f2be ab2d 0dbf
000000c0: def0 64be 86f2 733e 472f bdbe dd1b 30bf
000000d0: 647e 34bd 00c5 33bf 036c 28bf b118 fd3e
000000e0: 22d0 ddbe a84b 15bc a07b 00be d3fc 243f
000000f0: fb17 1ebe 6487 7dbd 70c4 073f 2783 edbe
-0.62089884 -0.013408246 -0.24465655 0.582913 -0.040690016 0.57353896 -0.13461636 -0.43092594
-0.38798833 -0.021596575 -0.44356573 -0.53849435 -0.46843186 -0.010342318 -0.047259428 -0.037763953
0.5381866 0.050001435 -0.19812162 -0.6252114 -0.47901756 -0.3362494 -0.5521054 -0.09087209
-0.5771996 -0.33909357 -0.31373423 0.6008744 -0.05536021 -0.31646806 -0.08428948 -0.08410088
0.39718086 -0.6523803 -0.08594229 -0.2886152 -0.057474125 -0.17889196 -0.026029631 -0.36643955
-0.02773173 -0.031547274 -0.1184432 -0.7066504 -0.27969038 -0.009805608 -0.47400206 -0.5514781
-0.22357509 0.23822984 -0.36950132 -0.68792516 -0.044065848 -0.70222473 -0.6578981 0.494329
-0.43322855 -0.009112276 -0.12547159 0.6444828 -0.15438835 -0.061896697 0.53034115 -0.46389124

fc.2.weight f4 [64, 64]
00000000: 584a afbc 299a 8abd 10b5 a03c 2f82 883b
00000010: 2826 42bd 2cd9 b03d 90bf f4bc c2cc ba3d
00000020: 6348 283d 671f 87bd f010 3e3d 0046 5a3c
00000030: 8079 87bb 58e6 d0bd 2096 893c 0655 e2bd
00000040: 78b7 e33c 7e41 0dbe e812 fcbc 1a8f ad3d
00000050: 2069 53bc bedb 9b3d 08e3 9a3d ff64 863c
00000060: 4662 bf3d 80dc f93c 20dd 053d d980 98bd
00000070: 50c0 d9bd b0a5 10be b487 d53d a43f 41bd
00000080: bfe6 e9bd 0819 c73c 20dc edbc 1a20 ab3d
00000090: 9355 dd3b 2ea2 b33d d837 a73d af4a 9c3d
000000a0: 1767 953d 75d8 15bd f114 a0bd ca94 883d
000000b0: 40cb bfbd b336 d5bd 4091 f3bb 8c5d 2dbd
000000c0: c0a0 f63d 5e97 1cbe c867 f8bd e2d1 df3d
000000d0: 3d73 753d c898 753d 8034 f43d 5305 a9bd
000000e0: 6049 d4bb f775 c9bd 7897 a1bd 6703 c3bd
000000f0: 50a7 1bbc 9c83 b6bd 367c 17be b7e9 d6bd
00000100: ceb4 cd3d 50b8 4bbe 80d1 a9ba 7091 94bc
00000110: 3b82 f3bc 6c2b 55bd 007e fcba 09d6 eabc
00000120: d1b6 4ebe e924 ebbc bae3 c73d 38ea e23c
00000130: b0b9 98bc 806d b0bd 9023 eabd 4417 1a3d
00000140: d9e7 213d b718 febc 6c24 e13d 78ae ba3d
00000150: 1ccd 57bd e275 ca39 0bed 14be b5a4 62be
00000160: ba3a 4a3d 6e0c 90bd 541c a1bd d376 043d
00000170: 5fde 843b ed19 d6bd 4729 9fbd 1cf7 cebd
00000180: 77fa e1bd 9c18 103d 19ae 78bd 7866 f93d
00000190: 6ecd aabd ac5c 05bd 9e25 3f3a a9ce 6b3c
000001a0: 92c3 60b9 8753 19be 29f3 053d fa54 b2bd
000001b0: 33ba d83d 8969 77bd bd43 a13d 780d 97bd
000001c0: 5528 41bc 9c68 243c fcd0 1c3d ee3b 863d
000001d0: 39b2 04bd 1655 8f3d 94e0 60bd 8412 f33c
000001e0: 3ebc c1bd 6ab7 0cbe 00e4 3e3b a59b c3bd
000001f0: 446a ddbd 943a 4cbd 5865 48be b4db a73b
00000200: d4e0 4c3d 6414 8fbd 5e26 c6bd ad7e 12be
00000210: 2c7b d3bd 920a a93c e8dc d3bc 7c5a f6bd
00000220: ef23 15be 3059 97bd 14c7 a6bd 1400 133d
00000230: 3a39 94bd cb8b b63b 38af ac3c 4c2c f7bd
00000240: 6c8b cdbc fb37 b6bd 3405 3d3d 4043 a33c
00000250: 08e3 95bc 6058 7d3d 8837 a33d 9c2b 773d
00000260: f753 d93c 5444 90bd cce3 503d 2e07 e9bd
00000270: 7156 efbd 2093 f4bb 707f af3d b9a5 17be
00000280: 8773 75bb 46c6 bcbd a67d 0b3c 5897 923c
00000290: acd1 93bd 6877 a4bd 3899 fb3c 40d4 f3bd
000002a0: e0fd a03c 1336 bebd 15d0 3dbd 2801 5dbd
000002b0: d4e1 83bd 2cbe 853d 9011 6d3d 905f 9e3d
000002c0: 8e88 f1bd 76a0 76bd baeb 8c3d 7031 5c3c
000002d0: db85 91bc 70c4 d9bd d8da 26bd 0b30 d7bd
000002e0: f29b 943d fe92 bc3c 407a 08bd 5eee b43d
000002f0: a22c d9bd ea52 bd3d 4d6b 15be d2cf b03d
00000300: 62f2 fcbd 6e9f 98bd e8b8 b83d 4893 3abd
00000310: b097 0abd 3249 86bd f45d 6b3d 0ecf b43d
00000320: 80d5 6f3d 10b7 a3bd e6bd eebd 1cab ce3d
00000330: 04b7 8f3d 0035 ebbb c0da 90bb 40bd 043d
00000340: f05d 6c3d 6c0b cabd 20ab 583d d22f f93d
00000350: 0021 f83d da38 91bd 52b6 b53d aeba a53d
00000360: b8b6 5d3d 00d9 feba 6043 ba3b d8ec 463d
00000370: 94ac ff3d 560c f6bd f2cf 86bd 58bd b1bd
00000380: b00e bcbd 12b8 e03d 9ef3 e7bd b08b 813d
00000390: c03e 7cbc f4c7 3dbd b69a eb3d f445 843d
000003a0: aa9b d0bd 9875 dd3c a433 4e3d d0f3 743c
000003b0: 20ef ae3d 00ad 383a 183e af3d 98ad cfbd
000003c0: 4890 a5bc d6ef c9bd 6054 b3bd 4017 a53b
000003d0: 8eac 883d 96e2 d83d c475 663d d40a 283d
000003e0: 1c3c 913d e01c 97bc 9438 fd3d b2c6 86bd
000003f0: c47b 673d d4a3 9cbd 04d8 6b3d 5a64 efbd
-0.021397755 -0.06767685 0.019617587 0.0041659097 -0.04739967 0.08635172 -0.0298765 0.09121086
0.04108466 -0.065977864 0.04640287 0.013322353 -0.004134357 -0.102001846 0.016795218 -0.11051373
0.027797446 -0.13794515 -0.030770734 0.0847456 -0.012903482 0.07610272 0.07562834 0.01640558
0.09344916 0.03050065 0.032681584 -0.07446451 -0.10632384 -0.14125705 0.10426274 -0.047179833
-0.114209644 0.024303928 -0.029035628 0.08355732 0.006754586 0.08771168 0.08164948 0.07631432
0.072950535 -0.036583383 -0.07816494 0.06669004 -0.09364939 -0.10410824 -0.0074330866 -0.04232554
0.120423794 -0.15292117 -0.1212917 0.10928704 0.059924353 0.059960157 0.11924076 -0.08252969
-0.0064784735 -0.09836953 -0.078902185 -0.09522133 -0.00950034 -0.08911821 -0.14793476 -0.10493796
0.100442514 -0.19894528 -0.0012956113 -0.018135756 -0.029725185 -0.052043363 -0.0019263625 -0.028666513
-0.20186926 -0.028704124 0.09760232 0.027699575 -0.01864323 -0.086146355 -0.11432564 0.037619844
0.039527748 -0.031017644 0.10993275 0.091153085 -0.052685842 0.00038616272 -0.1454355 -0.22133143
0.049372412 -0.07033621 -0.07866731 0.032339882 0.004054829 -0.10454164 -0.07771545 -0.10105726
-0.110341005 0.03517972 -0.060712907 0.121777475 -0.08339964 -0.032559082 0.0007291677 0.014392533
-0.0002143516 -0.1497327 0.0327026 -0.08707614 0.1058239 -0.06040338 0.07874248 -0.07375616
-0.011789401 0.010034706 0.03828524 0.065543994 -0.03239653 0.06998651 -0.054901674 0.029671915
-0.094597325 -0.13741842 0.0029127598 -0.09551171 -0.10811284 -0.049860552 -0.1956991 0.005122626
0.0500191 -0.06986311 -0.09675287 -0.14306135 -0.103262275 0.020634923 -0.025862172 -0.12028977
-0.14564489 -0.07390058 -0.0814344 0.035888746 -0.072374776 0.005570864 0.021079645 -0.12068996
-0.025090896 -0.08897396 0.04614754 0.019929528 -0.018296733 0.06185186 0.07969576 0.060344324
0.026529295 -0.070442826 0.050998494 -0.113783225 -0.11686409 -0.0074638277 0.08569229 -0.14809312
-0.0037452893 -0.09217505 0.008513844 0.017894432 -0.07217726 -0.080305874 0.030712709 -0.11905718
0.019652307 -0.092876576 -0.04634102 -0.05395618 -0.06439558 0.06530413 0.057878077 0.07733071
-0.11793624 -0.06021162 0.06880899 0.013439521 -0.017764023 -0.106331706 -0.04073605 -0.1050721
0.07256307 0.02301931 -0.03331971 0.088345274 -0.10604216 0.0924433 -0.14591713 0.086333886
-0.12350918 -0.07452284 0.09019643 -0.045550615 -0.033836067 -0.0655693 0.057462648 0.08828555
0.05855322 -0.07993901 -0.11657314 0.1009123 0.07017329 -0.007177949 -0.0044206083 0.032407045
0.057706773 -0.0986546 0.052897573 0.12167324 0.12115669 -0.07090922 0.088726655 0.08092247
0.054129332 -0.0019443333 0.0056843013 0.048565716 0.124840885 -0.12014072 -0.06582631 -0.086786926
-0.09182489 0.109726086 -0.11325763 0.063254714 -0.01539582 -0.04633327 0.11504118 0.06458655
-0.101859406 0.027033612 0.050342217 0.014950708 0.08541703 0.0007044822 0.08556765 -0.10140532
-0.0202104 -0.09860198 -0.08756328 0.005038172 0.06673537 0.10590093 0.056264654 0.04102595
0.07091543 -0.018446386 0.12364307 -0.06580867 0.056514516 -0.07648435 0.057579055 -0.116890624

fc.2.bias f4 [64]
00000000: 6f01 573d 1e49 533d e339 6f3c 284b a3bc
00000010: d01e a13d 5a29 cbbd 4a89 0c3d 7dee a03d
00000020: 12e1 c53e 9083 3f3c cd2b 05bd 0570 05bd
00000030: b045 ff3e 9ff9 c63e 450b 413e dc63 75bd
00000040: 6dcd ba3e bfff 08be ae3f 903d e54f 89bd
00000050: 7506 993e 679a b43e 4865 1d3d 279f 363d
00000060: 67a1 b93e fec4 1bbe 7431 1c3d aacc d13e
00000070: d673 c9bb 778e 633e e384 90bd 1056 c13e
00000080: 81a0 ac3e 606d a0bd 5cd1 debd f4a1 25be
00000090: 6a43 86bc 035e cfbd 1a1a fdba 5d70 cd3e
000000a0: 5bbd e937 4865 b13d fa9f d93e 4a9b fa3e
000000b0: 17d3 8b3c 6579 87bd 5c84 f8bc a812 52bd
000000c0: c496 9a3d cdc3 d13c 24a9 00be 75be 2cbc
000000d0: 4a82 2c3c 2e7a 043d ae8f f4bd 17b4 0e3f
000000e0: e0a7 2b3d e9ea 1f3d 3458 fdbd b862 00bd
000000f0: a160 6e3e 0931 163d b7b2 a4bd 002a 123d
0.0524916 0.0515834 0.014601204 -0.019933298 0.07867205 -0.099199966 0.034310617 0.07857988
0.38648278 0.011689082 -0.032512475 -0.032577533 0.49857855 0.3886232 0.18851955 -0.059909686
0.36484852 -0.1337881 0.07043396 -0.06704692 0.2988774 0.3527405 0.038426667 0.044585373
0.36255953 -0.15211865 0.0381331 0.4097646 -0.006147842 0.22222315 -0.07056596 0.37760973
0.33716205 -0.078333616 -0.10879776 -0.16175061 -0.016389567 -0.10125353 -0.0019310147 0.4012479
2.786394e-05 0.08661896 0.42504865 0.489466 0.017068429 -0.06614951 -0.030336551 -0.051287323
0.075482875 0.02560606 -0.12564522 -0.010543455 0.01052911 0.032343082 -0.11941467 0.55743545
0.041908145 0.039042387 -0.12370339 -0.031344146 0.23279049 0.036667857 -0.080419 0.035684586

fc.4.weight f4 [3, 64]
00000000: 1bec 39bd 58bc 4ebd bcae a63d 2cb5 87bd
00000010: a4ea 16bc 462f 9e3d 419d 25b9 bc84 423c
00000020: 9b21 eebe 4048 a7bd d41f df3d edb4 5bbc
00000030: 704c 04bf e4ec ebbe 6c96 55be 08d2 2d3d
00000040: 9790 babe 013d bb3d 702c ee3c fb0d 0cbd
00000050: 632e 96be fb3a 24bf 4470 f9bd 38c6 ffbc
00000060: b4e3 a0be e7d4 95bd 5875 0fbd e47d 1dbf
00000070: ed1c 593d 4164 94be f9dc acbc b976 fdbe
00000080: 2da0 e6be eab1 39bd a480 603d cce3 a73d
00000090: 1ab5 64bd 3045 893c 13f0 c23d a329 49be
000000a0: e949 43bc 2a5d 243d aaf7 20bf 41c3 27bf
000000b0: 3d7f f1bc ce19 923c 431a 9e3d 00a4 a73a
000000c0: d1b7 b8bc 3fd2 b03c 20d4 a9bb baa8 36bd
000000d0: 7fe4 50bd 054c ec3c a0ef cb3c 28f9 19bf
000000e0: 0cf9 2dbd 33e3 3b3b 404c 41bb a238 c4bd
000000f0: 885b e3be fb9f 7d3d 68c5 e8bc 6000 e03c
00000100: e481 03bd a4d1 20bd 1934 4c3d 8010 00bc
00000110: 0d48 26bb e057 4bbd 13b0 9f3b 6c2b 00be
00000120: 4864 debe c3fa d43c d720 23bb acbb 2abc
00000130: 490e 01bf 4e5c d4be ab19 98be c0e0 963c
00000140: d104 e6be ae79 ae3d 2d19 44bd f312 8fbd
00000150: af28 b8be b591 05bf 58c2 9ebc 02d6 873d
00000160: 8099 dcbe dccd 803d 3a27 f5bd 00ce 0ebf
00000170: 1b7b 28bd aa91 c8be 77d9 e4bc 13b1 00bf
00000180: 6348 ecbe 2f6b a23c ea95 edbd 6ad8 a6bd
00000190: e876 223d d103 793d 8f3b 293d 89f7 cfbe
000001a0: dfc5 e7bc 28e5 96bc 29c6 01bf 2d94 15bf
000001b0: 5a28 9cbc 73cc a3ba a41d 5bbc 2682 823d
000001c0: 14c4 7abd 3403 ef3b 3854 5dbd 11bf 7ebd
000001d0: 1dd4 7b3c 0710 f7bc 208b a8bb d059 1bbf
000001e0: eef3 86bd f3cc 8cba 00a8 2dbc 4079 95bd
000001f0: 5d13 03bf 85f6 56bd 0b82 55bc 78cb a73c
00000200: 8410 0ebb f1fb feba 3ec4 273d 4adf 823d
00000210: d2c5 763c c0a5 fbbd 67c3 723c 2b8f 0a3c
00000220: a665 20bf 479f 7c3d fd07 ccbd 1a98 893d
00000230: d7fa dfbe 6f96 36bf 2438 34bf 4874 e8bc
00000240: c31a 3abf ebbd ca3d 33bc 7abc 42d4 8b3d
00000250: 0987 46bf 2a60 babe 66a0 dc3d 7319 a8bc
00000260: 4dd1 40bf e6c1 b7bb e217 d53d 496b 71be
00000270: 85d5 0b3b e474 54bf c5c4 d93b 7a38 15bf
00000280: 3b92 13bf 06ae 17bd 4841 0d3d 2175 debb
00000290: 84d9 563c f8ab c0bc e281 a33d 4a05 3dbf
000002a0: 7df8 2aba 2dfe 583d 7809 d4be e091 9ebe
000002b0: ba99 6abd ead6 21bb 9782 043d e062 113c
000002c0: 1c3f 86bc e5f1 c63b b868 bf3c e072 4b3b
000002d0: add4 1e3c 1d0e 1f3c 0c86 2b3d 6553 d3be
000002e0: 340a 9b3d 4417 bc3c 585a 573d 1afc e33d
000002f0: 9318 08bf aac4 373d f0ec 47bd 36b2 00bd
-0.045391183 -0.050472587 0.08138797 -0.06626353 -0.009211216 0.077238604 -0.00015794208 0.011872467
-0.46510014 -0.081680775 0.108947426 -0.013409835 -0.51679134 -0.4607917 -0.20858163 0.04243663
-0.36438438 0.09142495 0.029073924 -0.03419302 -0.29332265 -0.641525 -0.12179616 -0.031222448
-0.31423724 -0.073159985 -0.035024017 -0.6152022 0.0530061 -0.28982738 -0.021101462 -0.4950464
-0.4504408 -0.045335688 0.05481018 0.08197746 -0.055836774 0.016756624 0.09518447 -0.1964479
-0.011919477 0.04012791 -0.62877905 -0.6553231 -0.029479617 0.01783457 0.07719853 0.0012789965
-0.022548588 0.021584628 -0.005182758 -0.044594504 -0.05099916 0.028844843 0.024894536 -0.6014581
-0.042473838 0.0028669357 -0.0029494911 -0.09581114 -0.4440577 0.061920147 -0.028414443 0.027343929
-0.032106295 -0.03926243 0.04985437 -0.007816434 -0.0025372535 -0.04964435 0.0048732846 -0.12516564
-0.43435884 0.025998479 -0.00248914 -0.010420721 -0.5041242 -0.41476673 -0.29707083 0.018417716
-0.4492555 0.08519302 -0.047875572 -0.06986036 -0.3596854 -0.52175456 -0.01937978 0.066326156
-0.4308586 0.062892646 -0.119703725 -0.5578308 -0.041133028 -0.39173633 -0.027935727 -0.50270194
-0.46148977 0.0198265 -0.116008595 -0.081467465 0.03966418 0.060794655 0.041316565 -0.40618542
-0.028292594 -0.018419817 -0.50692993 -0.58429223 -0.01906221 -0.0012496844 -0.013373766 0.0637248
-0.06122215 0.007294083 -0.054035395 -0.062193934 0.015370396 -0.03015901 -0.005143538 -0.6068392
-0.06589495 -0.0010742232 -0.010599136 -0.07298517 -0.5120142 -0.052481193 -0.013031493 0.020482764
-0.0021677325 -0.0019453746 0.040958636 0.06390245 0.0150618125 -0.12287474 0.014817095 0.0084569855
-0.62655103 0.061675336 -0.09962461 0.06718464 -0.43746063 -0.71323293 -0.70398164 -0.02837576
-0.72697085 0.09899505 -0.015303659 0.06827594 -0.775498 -0.36401492 0.10772781 -0.020519948
-0.7531937 -0.0056078313 0.10404946 -0.23576082 0.0021336984 -0.8299086 0.006645771 -0.582893
-0.57645005 -0.037031196 0.034486085 -0.006788865 0.013113383 -0.023519501 0.079837576 -0.73836195
-0.0006522013 0.052976776 -0.41413474 -0.3097067 -0.05727551 -0.002469475 0.032351103 0.008873671
-0.016387515 0.0060713165 0.023365363 0.0031043813 0.009694261 0.009707955 0.041875884 -0.41274562
0.075703055 0.022960313 0.052576393 0.11132069 -0.531625 0.044865288 -0.048809946 -0.031419955

fc.4.bias f4 [3]
00000000: f0be 7cbf 66f9 75bf 2fb8 fbbe
-0.9872885 -0.96083677 -0.49163958
