others/Hybrid.pth (torch, 2499 bytes, 6 tensors)

feature_extractor.0.weight f4 [2, 2]
000000 7e 22 33 3f a9 68 19 3f 2e c1 48 bf af bf 8d bf
       0.69974506 0.59925324 -0.7841977 -1.1074122

feature_extractor.0.bias f4 [2]
000000 b6 f0 92 bd 0c df 0c 3e
       -0.07174818 0.1375696

vqcs.weight f4 [2]
000000 db 0f 49 40 ce 86 24 40
       3.1415927 2.5707278

vqcs._weights f4 [2]
000000 db 0f 49 40 ce 86 24 40
       3.1415927 2.5707278

fc.weight f4 [3, 2]
000000 8b d0 cb 3f c6 61 f0 3f ab 8f e8 3f 7f 47 d0 3f
       1.5923017 1.8779838 1.8168844 1.6271819
000010 64 17 9c 3f 0a 36 07 40
       1.2194638 2.1126733

fc.bias f4 [3]
000000 4b a8 e3 bf 1f a7 e7 bf 7b 92 f5 bf
       -1.7785734 -1.8097876 -1.9185327
